param6/p_net.pth (torch_old, 31517 bytes, 21 tensors)

pre_layer.0.weight f4 [10, 3, 3, 3]
000000 a3 c4 b1 bd bc f0 91 3e 07 47 df bd 2d 96 ff 3d
       -0.086800836 0.28503978 -0.10902219 0.12479816
000010 1d 7a ab 3d 6c 55 92 3e ee 98 a2 3c dc b0 81 bd
       0.08372901 0.28580797 0.019848313 -0.063325614
000020 f2 b5 0e be 3c aa 38 bd 9c 3f 64 bd 91 47 05 be
       -0.13936594 -0.045084223 -0.055724725 -0.13015582
000030 96 24 63 be f5 9f a0 bb 3c 79 af 3d 46 17 76 be
       -0.22181925 -0.004901881 0.085680455 -0.24032316
000040 e5 3a dd bd c8 81 28 be 5f f0 42 3e bd 70 82 3b
       -0.10802249 -0.16455758 0.19037007 0.0039807246
000050 59 09 cb 3a aa 2d 6f bd 9d 50 ec 3c 27 ba 50 3e
       0.0015490457 -0.058393158 0.028847033 0.20383511
000060 25 d9 2c 3e e9 2c 75 be 92 6e e1 3c d4 11 63 3e
       0.16879709 -0.23942913 0.027518544 0.2217477
000070 87 a1 1e 3d 4e cd e7 3d 88 60 7d 3e b9 b1 ae 3d
       0.038728263 0.11318456 0.24743855 0.08529992
000080 51 7d 31 be 80 f3 08 3e 2c e1 93 be 2b 6e 80 be
       -0.1733296 0.13374138 -0.2888273 -0.2508405
000090 ad db 86 3d 3d d7 91 3e 17 58 c9 3d 11 30 a1 bd
       0.065848686 0.28484526 0.09831255 -0.07870496
0000a0 4e 01 80 be 3a 9c d0 bd 99 0a 0a be 48 6f 85 3d
       -0.25000995 -0.10186048 -0.13480605 0.06515366
0000b0 bd 59 bc bd 0b be 6a bd dc 10 10 3e 26 63 4b 3c
       -0.09196804 -0.057310145 0.14068931 0.012413776
0000c0 37 d8 ed 3d 9c 2b 50 3d d5 06 a5 bd 8b ea a3 bd
       0.11613505 0.05082284 -0.08057944 -0.0800372
0000d0 51 21 65 be cf 16 df 3d b3 09 4e be 2a be 1c be
       -0.2237599 0.10893022 -0.20120887 -0.15306917
0000e0 8f 2e a4 be 6c 34 35 3d c0 be ea 3c 53 e0 56 be
       -0.3206677 0.044239447 0.02865541 -0.2098401
0000f0 c4 ce 68 3e 24 fd 04 3e dd 46 4c 3e 5e 87 70 bd
       0.22735125 0.1298719 0.19948907 -0.058722846
000100 46 04 01 be a5 60 05 3d c6 33 ea bd 6e 79 9a bd
       -0.12599286 0.03256287 -0.11435656 -0.07542692
000110 60 8c 76 3d a1 06 a3 3c 49 b7 8c 3e 3c 16 00 3e
       0.060192466 0.019900622 0.27483585 0.12508482
000120 6c 44 d9 3c 36 af d9 bd b2 b7 ac bd 80 0a 08 be
       0.026521884 -0.10629122 -0.084334746 -0.13285255
000130 c4 71 aa bd 46 01 a9 bb fd 71 51 3e 63 9e e5 3d
       -0.0832248 -0.0051576225 0.2045364 0.112118505
000140 94 86 3f bd 79 80 8d bd 6b 9b ba 3d 25 45 f2 3d
       -0.046759203 -0.0690927 0.09111675 0.118295945
000150 ae ee 1e be 23 ad d0 bd 59 6b b2 bd 7e aa 4f 3e
       -0.15520737 -0.10189273 -0.08711881 0.20279881
000160 a2 c9 72 bd 44 f7 21 3e 50 6d f4 3b cf d9 d6 3d
       -0.059274323 0.1581698 0.00745932 0.104907624
000170 7d 78 24 3d 36 40 1f be 9d d1 a3 be 7c 76 fb bd
       0.04015397 -0.15551838 -0.3199586 -0.122784585
000180 51 ae c9 3d 0f e3 57 3e e1 b8 38 bd d5 61 bc 3d
       0.09847701 0.2108271 -0.04509819 0.091983475
000190 89 19 b5 3d 0a 81 1a 3e bc 88 91 bd 17 b9 5d be
       0.08842761 0.15088287 -0.07106158 -0.21652637
0001a0 4f d6 28 bd d0 3e a3 3d d8 a9 d8 3c d1 1a f7 3b
       -0.041220006 0.07970965 0.026448175 0.0075410386
0001b0 1f 50 1d be 89 e6 81 bd f1 cf 58 3e 9a 78 e8 3c
       -0.15362595 -0.06342799 0.21173073 0.02837782
0001c0 01 29 36 3e 69 28 3f 3d de 0f 81 bd 46 65 88 bd
       0.17789079 0.046669398 -0.063018546 -0.066599414
0001d0 34 17 6c be 1f a8 83 3d 5f 12 12 be 6a 16 12 3e
       -0.23055726 0.06428551 -0.1426482 0.14266363
0001e0 bb cf 34 3e 4d 71 53 3e e6 31 18 3e 9a 12 a4 3d
       0.17657368 0.2064869 0.14862785 0.080113605
0001f0 e6 80 0f be 51 05 5f be 90 22 3e be 95 23 cd 3d
       -0.14014015 -0.21779372 -0.18567872 0.10016552
000200 6b a3 d8 bd 1e 1d 78 3d 01 25 6f 3e fe 67 8b 3d
       -0.105780445 0.060574643 0.2335396 0.06806944
000210 09 ba c8 bd 38 4b 37 bb bb 49 3d be 88 69 5b be
       -0.098011084 -0.0027968418 -0.18485157 -0.21426976
000220 09 d9 a4 bd 2c 77 2a be 37 38 8c be bd 8b 3c 3c
       -0.08049209 -0.16647023 -0.2738664 0.011507926
000230 43 38 3a 3d 6a ed 4b bc c2 c2 bb 3d 47 04 de 3c
       0.04546381 -0.012446741 0.091680065 0.027101649
000240 bd d8 47 3e f4 be d2 3e 29 5f 07 3e 38 22 ba 3e
       0.19516273 0.4116131 0.13219894 0.36354232
000250 ea be de 3d 1e fb 3d 3d 28 0f cc 3d a1 b8 58 bc
       0.10876258 0.046382062 0.09963828 -0.013227613
000260 aa 98 33 3e b7 01 5c 3d b0 7e 00 be f6 7d 9e bd
       0.17538705 0.053712573 -0.12548327 -0.07738869
000270 a9 5a 04 be 1a 7f 5f be b9 9b 72 3d b9 85 8f bd
       -0.12925209 -0.21825829 0.05923054 -0.070079274
000280 f0 df a5 3d d8 1a 82 be e5 4c bd bd b9 99 94 3d
       0.08099353 -0.25411105 -0.09243182 0.07255883
000290 bf 11 71 3c e5 be 9e be 34 2b f1 bd e2 cc 81 3d
       0.014713704 -0.31005016 -0.117758185 0.063379064
0002a0 3b c6 cb be 7a 48 eb bd f3 69 41 bd ba fc 1a 3e
       -0.39799675 -0.11488433 -0.04722018 0.1513547
0002b0 f1 97 87 3d f8 f7 5a bd 3b 8c 9f 3d a0 77 93 3d
       0.066207774 -0.053459138 0.07790419 0.07200551
0002c0 da 5f b5 bd 25 62 36 3c 26 5d e4 3d 27 84 58 3d
       -0.08856173 0.011131798 0.11150579 0.052860405
0002d0 f8 2b 16 be c2 79 b6 3d 37 8e d9 bc 07 42 aa 3e
       -0.1466521 0.08909942 -0.026557071 0.332535
0002e0 5c c8 21 be 9a 10 ea 3d ff 0b 92 3e 40 38 b8 3d
       -0.15799087 0.11428948 0.28524777 0.08995104
0002f0 62 f3 4b bd 7f 88 25 bd 2a 06 4d 3e 9b 81 6c be
       -0.049792655 -0.040413376 0.20021883 -0.23096316
000300 5f f5 c5 bb c0 5c 1c 3e 4e 45 3e bd c2 12 56 3e
       -0.0060412134 0.15269756 -0.046452813 0.20905593
000310 29 5c b4 3c 8a 38 31 be 19 16 8c 3d 8d 10 d3 3d
       0.022016602 -0.17306724 0.06840152 0.10305891
000320 c2 05 6a be ce 76 eb bd 18 7b 58 3e f1 b5 e7 bd
       -0.22853759 -0.114972696 0.21140707 -0.113139994
000330 58 c6 18 be 8f fb 59 3e 36 65 e5 bd 9b 2f 5e bd
       -0.14919412 0.21287368 -0.11200945 -0.05424462
000340 ce 07 7d 3e 3c 02 f0 bd 11 ed a7 3d 43 08 80 3d
       0.24710009 -0.11719176 0.08199514 0.06251576
000350 24 8f 25 be 9e c8 8c 3d e1 2d 31 bd de 6f 6d 3d
       -0.16167885 0.06874202 -0.043256644 0.057968013
000360 c4 ee c6 bd 86 a0 26 be d8 1d 44 3e de 0d c8 3d
       -0.0971351 -0.16272172 0.1915201 0.0976827
000370 5e 92 5f be 5c 0d d8 bd ab 16 f8 3d 15 59 02 bd
       -0.21833178 -0.10549423 0.121136986 -0.031823236
000380 f6 e5 c0 3c 76 16 b6 bd bb 03 50 be 85 b9 94 3e
       0.023547154 -0.08891003 -0.20313923 0.2904779
000390 3c a1 0f 3e 47 da 70 be e4 86 53 3e ea a8 bc 3d
       0.1402635 -0.23520766 0.20656925 0.09211905
0003a0 9e b2 bf 3c 83 70 55 be b1 0d f0 bb e5 ba 66 be
       0.023400601 -0.20843701 -0.007325851 -0.22532232
0003b0 fd 34 89 3e 02 6c 2a 3c 19 af 19 be b5 db c4 3d
       0.2679824 0.010401728 -0.150082 0.09612218
0003c0 4a ca 52 bd 21 99 c0 bd e4 45 e7 3d df be 8b bd
       -0.05146245 -0.09404207 0.112926275 -0.06823515
0003d0 d3 61 52 3d f8 22 8d bd b5 12 3e bd 3a 9a e2 bc
       0.051362824 -0.068914354 -0.04640456 -0.027661432
0003e0 86 8b 3f 3e 09 56 c1 bc a5 fc 0f bc aa 98 45 3e
       0.18705568 -0.023600595 -0.0087882625 0.19296518
0003f0 42 5c b5 3d a3 bf 95 be 10 12 b5 3c ac 0e a0 bb
       0.088554874 -0.2924777 0.02210334 -0.0048845615

pre_layer.0.bias f4 [10]
000000 7a e6 39 be 7c 35 ea 3d 36 95 84 bd 15 f5 39 be
       -0.18154326 0.114359826 -0.06473772 -0.18159898
000010 28 91 97 3d 91 6e df bd 96 91 94 bc 38 da 78 3d
       0.07400733 -0.10909761 -0.018135827 0.060754985
000020 73 2e ae ba 65 61 2b be
       -0.001328899 -0.16736372

pre_layer.1.weight f4 [10]
000000 c4 57 87 3f b5 7e 66 3f be 21 85 3f 77 4b 62 3f
       1.0573659 0.9003709 1.0400922 0.883964
000010 82 8b 7f 3f ef 6b 81 3f bc f2 97 3f a4 21 6c 3f
       0.9982225 1.0111064 1.1870952 0.9223883
000020 39 52 6f 3f 8f ad 85 3f
       0.93484837 1.0443591

pre_layer.1.bias f4 [10]
000000 e1 c4 01 be 4c da 3e be b9 9b 92 3e 74 35 cd bc
       -0.1267276 -0.18637961 0.28634432 -0.025049902
000010 8e b6 7e 3d 95 65 ce bd 3f 12 d5 3e d8 45 4d 3e
       0.062185816 -0.10077969 0.41615483 0.20046175
000020 a7 f8 c6 3c b1 e2 8f be
       0.024288489 -0.2810264

pre_layer.1.running_mean f4 [10]
000000 f7 db 0c be 85 ef 09 3e 7a 14 86 bd 56 6c 2e be
       -0.13755785 0.13470276 -0.06546874 -0.17033514
000010 d2 42 39 3d b6 30 27 be a2 81 28 be 17 81 3a 3d
       0.04522974 -0.16327175 -0.16455701 0.045533266
000020 ad 5b 36 3c 76 e5 c1 bd
       0.011130256 -0.09467594

pre_layer.1.running_var f4 [10]
000000 f5 e2 44 3d 82 f2 d4 3d 3e c1 12 3e 9b f2 31 3d
       0.048068006 0.10397817 0.14331529 0.043444257
000010 5f 00 90 3d 3b c1 7a 3d c5 3f 9d 3d de 95 b8 3d
       0.07031321 0.061219435 0.07678179 0.0901296
000020 1a d9 d2 3d 51 4c ad 3d
       0.10295315 0.08461822

pre_layer.4.weight f4 [16, 10, 3, 3]
000000 80 8b c3 be ab 13 40 bd 71 89 f8 bc 8f 65 db bc
       -0.38192368 -0.046893757 -0.030338975 -0.026781825
000010 e4 e4 a4 bc 8d a1 07 be 59 fa ce 3d 95 f4 58 3c
       -0.020128675 -0.1324522 0.10106344 0.013241907
000020 a8 e2 bc bc c6 3d 79 3d fb 00 0d be c7 5e 12 be
       -0.023057297 0.060849927 -0.13769905 -0.14293967
000030 0d 4f 09 be 91 59 bf 3d 03 40 1b 3e b1 a5 01 be
       -0.13409062 0.09343255 0.15161137 -0.12660863
000040 1e 84 98 3c d9 59 21 bc d0 2b 17 be 74 fe 10 3e
       0.018617686 -0.0098480815 -0.14762807 0.14159566
000050 f6 00 93 3e c6 75 37 bd 63 ee 1d be a8 a3 34 bd
       0.2871167 -0.044790052 -0.15422969 -0.044101387
000060 ef fd e3 bc bd fc 44 3d 4a e8 3a 3e 17 b7 c2 bd
       -0.027831046 0.048092593 0.18252674 -0.09507578
000070 03 c1 b3 3c 60 13 cf 3c 66 8c ad 3b 04 33 a9 3e
       0.021942621 0.025277793 0.005296278 0.33046734
000080 e6 b0 a4 3c 07 02 fa bc 74 74 d9 bc 4f 7c 19 be
       0.020103883 -0.030518545 -0.026544787 -0.14988826
000090 77 db dd 3d 2f 16 a6 3d c1 fc 42 be 6b e3 ac bd
       0.10832875 0.081097 -0.1904173 -0.08441814
0000a0 33 a9 34 3d 7e e8 b3 bc 37 b7 98 bd 5b 2a d3 3d
       0.044106673 -0.021961447 -0.074568205 0.10310813
0000b0 1f 5e ff 3c 44 e6 8c be ae 33 77 3a ad 1d 29 3d
       0.03117281 -0.2751943 0.0009430003 0.041288067
0000c0 d5 7f ee bd d8 d1 be bd 13 27 a0 3c e1 a5 f7 bd
       -0.11645476 -0.09317368 0.019549882 -0.12092186
0000d0 76 a6 78 bd 67 9f 4f 3e 40 21 62 3e 56 e5 22 bc
       -0.060705625 0.20275651 0.22082996 -0.009942373
0000e0 ea ea 1b be 5d 78 47 bd 00 bc 87 be 35 38 10 be
       -0.15226331 -0.04869877 -0.2651062 -0.14083941
0000f0 98 e4 0d 3c 4f 79 c6 bd 9a 2f 79 3d 04 f8 0d be
       0.008660458 -0.096911065 0.060836412 -0.13864142
000100 fd a4 85 bd c3 7c 63 3e 03 3e 45 bd 58 9b c1 bd
       -0.0652561 0.22215562 -0.048154842 -0.094534576
000110 52 30 b8 3c 24 5c 0b be 9a 1a ce 3d 5c d1 47 3d
       0.022483978 -0.13609368 0.100636676 0.048783645
000120 8a 6a 23 3d 95 3a 41 3c 05 50 f2 3d 18 93 33 bd
       0.039896525 0.011793752 0.11831669 -0.04384145
000130 ac 4d 5f 3d 05 85 dc bd 1a c9 14 3d 7b 00 a4 bc
       0.054517433 -0.10767559 0.036324598 -0.02001976
000140 8f b2 32 3d e9 4f a0 3e 45 66 06 bd 16 7f b2 bd
       0.043627318 0.31310967 -0.032812376 -0.08715646
000150 e8 77 39 bd 47 40 c6 bd 72 69 09 3e 51 8f 27 bc
       -0.045280367 -0.09680229 0.1341913 -0.01022704
000160 40 4c 8f 3c d6 e3 e5 bd 65 a1 48 3c a9 9a 7a bd
       0.017492414 -0.11225097 0.012245511 -0.06118265
000170 fb e3 81 bd 14 12 53 3e d1 3d c1 3c 4f b6 1b 3c
       -0.06342312 0.20612365 0.023589047 0.009503915
000180 7d 59 97 bd 10 03 56 bc ea f3 a3 3d f4 4a da 3d
       -0.073901154 -0.013062254 0.08005507 0.106588274
000190 8d 36 49 bd aa 11 7f bd 98 a4 38 3e 2b 81 96 bd
       -0.04912429 -0.062272705 0.18031538 -0.073488556
0001a0 55 75 10 be fc c9 79 3d 80 45 17 3e 65 89 f9 3d
       -0.14107259 0.060983643 0.14772606 0.12184409
0001b0 e6 c2 24 bd 34 b0 9d 3d a8 12 1c 3e 43 82 10 be
       -0.040224932 0.07699624 0.15241492 -0.14112191
0001c0 92 90 5a be 4f 45 8c 3e d0 8a 88 bb 17 88 a9 bd
       -0.21344212 0.27396628 -0.0041669384 -0.0827791
0001d0 c2 aa 8f 3d b6 34 23 3c bf 10 4a bd 9d fa 4b 3e
       0.07014991 0.009961298 -0.049332377 0.1991982
0001e0 04 bb ed 3d 6b ca 01 be 75 16 0e bd fa ef 25 3d
       0.11607936 -0.12674873 -0.034689385 0.040512063
0001f0 b0 82 e4 bd 27 2b 01 bd 98 5a 82 3e 26 73 9c 3d
       -0.11157739 -0.031535294 0.25459743 0.0763915
000200 f9 ec 0e bd af a2 10 3d fa a7 11 be df 37 7b bd
       -0.034893963 0.035311397 -0.14224234 -0.06133258
000210 3e 9c ed bc 69 e1 1d 3d 5b 90 01 3e a1 c5 99 bd
       -0.029005166 0.038545046 0.12652723 -0.07508398
000220 cf 1b ec bd 11 e6 03 be 53 38 bd 3d 3b 58 c5 3c
       -0.115287416 -0.12880732 0.092392586 0.024089923
000230 33 03 33 3d 2f da 69 3c f8 63 87 3d 33 b6 09 3e
       0.043704223 0.01427321 0.066108644 0.1344841
000240 97 f3 de 3d 6f 2a 83 bc 80 58 a6 bd 56 ee ed 3d
       0.10886305 -0.016011445 -0.08122349 0.116177246
000250 18 27 38 bd 56 52 cf 3d 84 75 05 bd 3e 26 b9 bd
       -0.044959158 0.10123126 -0.032582775 -0.09040497
000260 c6 21 e7 3c 42 71 0c bc 67 af 73 bd 48 7a de 3c
       0.028214347 -0.008571925 -0.05949345 0.027157918
000270 0d fc ec bd 28 4b 88 be a9 c9 25 bc ae b8 fe bc
       -0.11571512 -0.2661984 -0.01011888 -0.031093922
000280 76 be bb be 56 03 bf bd e6 09 4e be 20 ec 97 be
       -0.36668748 -0.09326808 -0.20120963 -0.29672337
000290 73 f1 2e bc 91 0b ea bd 71 56 88 be 2d 29 53 be
       -0.010677683 -0.11427987 -0.2662845 -0.20621176
0002a0 45 10 2b be b5 c1 b2 bd a8 fe 34 be a9 59 7c bb
       -0.16705425 -0.08728353 -0.17675269 -0.003850559
0002b0 3c 50 ad bd 46 95 1b 3e e9 d4 96 bd 78 85 9f bd
       -0.08462569 0.15193662 -0.07364828 -0.07789129
0002c0 22 3f 10 3d f9 b6 f7 bd da 45 2b bb 5d e0 42 3e
       0.03521646 -0.12095446 -0.0026134164 0.190309
0002d0 62 27 78 bc 89 18 e5 bd 5e 99 59 3d 3c dd a3 bd
       -0.015146108 -0.1118632 0.053124778 -0.080011815
0002e0 65 a2 fb bd 99 6a c0 3d 61 38 5b bd 99 8b c7 3d
       -0.12286834 0.09395332 -0.053520564 0.09743423
0002f0 3c 3c fa 3b a5 3b 86 3c f7 3e 3b be b5 1f f0 bc
       0.007636575 0.016385863 -0.18285738 -0.029311994
000300 a1 de 50 be b6 17 59 3d ed 58 56 3c 2e b2 de 3c
       -0.20397426 0.053001128 0.013082725 0.027184572
000310 50 b2 86 3e 68 4e a3 3c 7e 12 fb 3b 1b d8 fe bd
       0.26307917 0.019934848 0.0076621165 -0.124435626
000320 d5 b5 9a 3c 62 39 9e 3b a1 b9 fd bd 42 9b 99 be
       0.018885532 0.004828618 -0.123889215 -0.30001265
000330 dc 56 9e bd 6f c9 ba be e6 7c c5 bd 9f 22 c0 3d
       -0.07731411 -0.36481807 -0.09642963 0.093816034
000340 be 3f 83 bd e9 d5 43 3d 01 ab 18 be 7d b5 b2 be
       -0.06408642 0.047811422 -0.14908983 -0.3490409
000350 d9 b9 ea bd ae 95 65 3d 46 19 60 be b1 8d 10 3e
       -0.11461229 0.05605095 -0.21884641 0.14116551
000360 85 45 85 be 6e 55 8e be 3a 9b 21 3b c6 47 0e be
       -0.26029602 -0.27799553 0.0024659173 -0.13894567
000370 b4 66 04 3e 3e 99 4d 3e 8f 31 80 3d f4 2d 01 3c
       0.12929803 0.20077989 0.062594526 0.007884491
000380 66 2b b1 bd 92 13 d4 3b a9 85 a1 bd 24 ed 44 3d
       -0.08650856 0.0064720595 -0.07886822 0.048077717
000390 46 04 a3 3d 9c ca cd 3c e7 1d af 3b ba 5b 8a 3d
       0.079597995 0.025121026 0.005344141 0.06755777
0003a0 9f 39 00 3d 84 81 62 bd b4 6b 6d bd 27 a6 1e 3e
       0.03130495 -0.055299297 -0.05796404 0.1549307
0003b0 11 55 64 bd cc d9 c9 3d 18 4a 5f bb 44 54 ae 3d
       -0.05574519 0.098559946 -0.0034071263 0.08512166
0003c0 b4 cd a5 bd fe 91 16 3c 33 cd 65 bc d0 6c fe bc
       -0.080958754 0.009190081 -0.014025974 -0.031057745
0003d0 b3 c3 32 be 73 9e a1 3d ed 5b 2d 3d c7 c0 ac 3d
       -0.17457466 0.0789155 0.042323995 0.08435207
0003e0 71 f2 53 3b 6d ea cb 3d 53 65 c2 3c ff 2f 12 be
       0.0032340551 0.099568225 0.023729956 -0.14276122
0003f0 41 84 3b bd c4 dd bf bc b4 09 0a 3d 71 51 bf 3d
       -0.045780424 -0.023421176 0.03370066 0.093417056

pre_layer.4.bias f4 [16]
000000 11 76 ae 3c 63 18 11 b8 6d f8 56 bd c1 54 41 bd
       0.021296533 -3.4593406e-05 -0.05248301 -0.04719997
000010 9c 50 90 bb 3b 27 a9 3d da 42 8c bd 0f 44 d1 bc
       -0.0044041406 0.08259436 -0.068486884 -0.025545148
000020 95 b4 c0 3c 3d dc 65 3d 90 0c 08 bd b9 b9 2b 3d
       0.023523608 0.05611824 -0.033215106 0.041925166
000030 6e 03 51 bc 78 ba aa 3d a2 9c 17 bc a4 d7 ae bd
       -0.012757165 0.08336347 -0.009253653 -0.08537224

pre_layer.5.weight f4 [16]
000000 00 14 85 3f 33 3c 8b 3f 5c 5a 87 3f 5e 7e 91 3f
       1.0396729 1.0877746 1.057445 1.1366689
000010 46 1a 80 3f e7 61 63 3f c2 54 4d 3f 16 43 81 3f
       1.0008018 0.8882126 0.80207455 1.0098598
000020 17 9e 81 3f 43 eb 7b 3f d4 18 7b 3f 4a 42 75 3f
       1.012637 0.98405856 0.9808476 0.95804274
000030 29 5f 82 3f 99 f4 83 3f e7 35 83 3f be 68 4c 3f
       1.018529 1.030902 1.0250825 0.79847324

pre_layer.5.bias f4 [16]
000000 83 3a e7 bd 62 61 9b bd a1 7a 81 3e d2 05 4e be
       -0.11290457 -0.07586934 0.2528887 -0.20119408
000010 91 8c 6d bd 21 1e 69 3e 7e 21 fa bc e7 80 1f 3e
       -0.057995383 0.227654 -0.030533548 0.15576516
000020 44 71 ca bd 06 d4 95 be e1 8a 9f be 51 45 e1 3e
       -0.09884885 -0.29263324 -0.31160644 0.43998197
000030 0f f4 6a 3e f6 97 1a 3d cf 84 d3 3b 83 03 6a 3e
       0.22944663 0.037742577 0.006455041 0.22852902

pre_layer.5.running_mean f4 [16]
000000 52 5c 07 bf b1 29 8f bf eb c7 c9 bf 65 f0 17 bf
       -0.52875245 -1.1184598 -1.5764135 -0.5935119
000010 ce a3 5c bf 07 ce 85 3f 06 2c d7 3f 15 09 1c bf
       -0.86187446 1.04535 1.681031 -0.6095136
000020 e6 ca e8 be 2f cd 7c be cf 09 c9 bf 9f dc 1d 3f
       -0.454673 -0.24687646 -1.5706118 0.61664766
000030 9e 41 a7 bf 45 e5 03 bf 99 13 78 be 31 0b fc bd
       -1.30669 -0.5152171 -0.24226226 -0.12306822

pre_layer.5.running_var f4 [16]
000000 83 df 41 3f 76 87 ac 3f f4 0c fd 3f 36 ca 91 3f
       0.75731677 1.3478839 1.9769578 1.1389835
000010 1a 9b 41 3f b5 39 7d 3f 5f a0 97 3f ab 6e 4d 3f
       0.7562729 0.9891618 1.1845816 0.8024699
000020 dd 00 67 3f 46 34 1d 3f 49 1a 8e 3f 72 19 d3 3f
       0.9023569 0.6140789 1.1101772 1.649214
000030 9b 44 95 3f 98 da 1b 3f 7c d0 7b 3f 58 84 03 3f
       1.1661562 0.6088042 0.98364997 0.51373816

pre_layer.7.weight f4 [32, 16, 3, 3]
000000 5a 61 d8 3b ad 5c ed bd d5 da 16 bd ea 12 a0 3d
       0.006603402 -0.11589942 -0.03682979 0.078161076
000010 01 5d ae 3d bc 65 3f 3e f1 d8 aa bc 8f ce da bc
       0.08513833 0.18691152 -0.020855399 -0.026709823
000020 48 d2 67 bc 71 48 17 be d0 db 60 bd ee 1b 1b be
       -0.014149256 -0.14773728 -0.05489713 -0.15147373
000030 82 be dd bd 29 b2 55 3d 3c 65 1d be ea ee 03 be
       -0.10827352 0.05217186 -0.15370649 -0.12884107
000040 55 77 bd 3d e9 38 0e be b7 44 31 be 97 b3 7b bd
       0.092512764 -0.13888897 -0.17311369 -0.061450567
000050 71 5e 48 be 6f bd 97 be 57 1f 45 be c8 73 90 bd
       -0.19567277 -0.29636714 -0.19250236 -0.070533335
000060 8a 7c c6 bd ff 9c d6 bd e4 78 f6 bd 98 dc 0e 3e
       -0.09691723 -0.104791634 -0.12034777 0.13951337
000070 6f 68 50 3c 31 66 8d be ea 3b bf bd 55 c0 3f 3e
       0.012720211 -0.27617028 -0.093375996 0.18725713
000080 9f 26 8e 3d 40 f1 c9 bd 21 35 7a 3d a0 f8 83 3d
       0.0694096 -0.09860468 0.061085824 0.06443906
000090 5b 2a 49 3d 70 9a 84 bc 43 8c fe bd 5f 49 17 be
       0.04911266 -0.016186923 -0.124290965 -0.14774083
0000a0 fe f2 f0 bd 9b 52 02 be 49 ac 09 be fc 42 55 bd
       -0.11765097 -0.12726824 -0.13444628 -0.052065834
0000b0 93 05 76 3d e0 17 f2 3d e5 fd 0a 3e f0 9e 3d 3e
       0.06006391 0.1182096 0.13573416 0.18517661
0000c0 1f bd b5 3d 95 83 dc 3c b2 03 0e 3e aa d9 8c 3d
       0.088739626 0.026918212 0.13868597 0.068774536
0000d0 c2 d0 0c be b7 98 65 bc 9b 83 24 3d e5 46 9a 3d
       -0.1375151 -0.014013461 0.04016457 0.07533053
0000e0 1c 1e f5 3d 79 5b f8 bd af eb 14 3e 64 11 4f bd
       0.119686335 -0.12126822 0.14543031 -0.050553694
0000f0 19 a4 58 3c af 22 11 3c e6 ba 35 3e 15 dc 81 3c
       0.013222718 0.008858367 0.17747077 0.015852014
000100 7f 54 81 3d 96 d1 67 3d 59 25 0c bd 56 cd 8c bd
       0.063149445 0.05659636 -0.034215305 -0.06875102
000110 54 4e 4f 3d 7c 06 98 3d 4b 26 70 bd 94 f2 4c bd
       0.05061181 0.07423112 -0.05863027 -0.050036028
000120 5a e6 fe bd 74 22 27 3d 21 14 2e 3c 94 8f 6a 3d
       -0.1244628 0.04080434 0.010624916 0.057265833
000130 aa fa 86 bd f9 4d a0 3d f7 a7 6e be ef 4f 06 be
       -0.06590779 0.07827372 -0.23306261 -0.1311643
000140 94 aa 14 bd 05 00 0f 3d 3c b4 56 bc ed ae 26 bd
       -0.03629549 0.034912128 -0.013104495 -0.040694166
000150 1b fe 4f bb 7f 69 9c 3d b0 10 45 3d f2 6c a9 bd
       -0.0031737152 0.07637309 0.048111618 -0.08272733
000160 e0 84 cf 3d d7 e2 64 bd a5 02 2e be 6a 6a 1b 3e
       0.10132766 -0.055880394 -0.16993196 0.15177312
000170 1f 50 00 3e 8d e4 6f bd 02 bc e4 bc f5 cb e1 bd
       0.12530564 -0.058567572 -0.02792168 -0.1102523
000180 38 f1 31 bd 5e 67 4d bc ba 22 35 bd 8d 12 40 3d
       -0.043442935 -0.012536852 -0.04422257 0.04689269
000190 1c 93 e3 3d 59 f9 34 3e 0b 58 10 3c 71 6c ee bc
       0.11112043 0.17673244 0.008810054 -0.029104443
0001a0 86 aa e8 bc 07 2b a9 bc ca 40 41 be a3 6c 5f be
       -0.028401624 -0.0206504 -0.18872371 -0.21818785
0001b0 d8 d3 6f 3d 26 8a 1b 3d f1 5e 22 3e 7d b0 2a be
       0.05855164 0.037973545 0.1585653 -0.16668887
0001c0 fb b5 9a bd 55 38 3c be 3e ba e9 3c 4d 1c aa 3e
       -0.07554241 -0.18380864 0.02853119 0.33224717
0001d0 8f e6 33 3e 1b b1 34 3e b8 c5 24 3d 93 bf 3b 3d
       0.1756842 0.17645685 0.04022762 0.045836996
0001e0 c9 9e f9 3d c4 ad e0 3c 1a 1f 05 3e de 63 a2 bd
       0.12188489 0.027426608 0.13000146 -0.079292044
0001f0 dc e9 c7 bd 4e 57 db 3d 46 bb c0 3d 5f 0f b9 3d
       -0.09761402 0.107100114 0.094107196 0.09036135
000200 35 8f e6 bc fe d4 0f 3d 69 c4 74 3d ce e4 17 be
       -0.028144458 0.035115235 0.059757624 -0.14833376
000210 d5 77 b4 bd 03 fd 31 bd c4 b7 4b 3c 27 44 5d be
       -0.08811919 -0.04345418 0.01243395 -0.2160803
000220 f6 0d d1 3a 32 33 85 3d a3 54 de 3c ed 77 c6 3d
       0.0015949595 0.06503905 0.027139967 0.09690843
000230 0a 8d b7 bc 6c 96 94 bb 8d 6a 9c 3d 84 3a 21 38
       -0.02240612 -0.0045345332 0.076375104 3.8439888e-05
000240 cd 3e 61 3e 65 c9 28 3e 93 d6 4e 3d 8c 79 27 3d
       0.21996613 0.16483076 0.050497603 0.0408874
000250 f2 a1 57 3d af 40 2a 3c 6c b1 d7 bd e1 12 65 3d
       0.052644677 0.010391398 -0.105318874 0.055926207
000260 92 85 05 3e f5 c8 13 be 4c 0b 9f bd e5 96 08 be
       0.13039234 -0.14432128 -0.077658266 -0.13338812
000270 69 31 57 be 54 a7 9e bc 44 59 8e bd 50 49 cc bd
       -0.21014942 -0.019366898 -0.0695062 -0.09974921
000280 86 ff ad bd 25 da 8e 3d 3d 88 32 be dd 93 aa bd
       -0.08496003 0.069752015 -0.17434783 -0.08328984
000290 37 78 ce bd 42 34 3d bd d6 0d 51 be 23 e1 86 3c
       -0.10081523 -0.046192415 -0.20415434 0.016464775
0002a0 9a b8 93 bd 7b 13 b7 bd d6 65 1f 3e 30 1e 8a bc
       -0.07212944 -0.089392625 0.15566191 -0.016860098
0002b0 27 2b 40 3d 5a 5c 0e 3d 45 a6 55 3d f2 68 92 bd
       0.046916153 0.034756042 0.05216052 -0.07148923
0002c0 06 6e bc bd 34 d7 b4 3c 7f 83 b8 bd e2 76 e6 bd
       -0.09200673 0.022075273 -0.09009456 -0.11253144
0002d0 77 54 19 be 28 d1 2b be c9 11 df bc b4 cf b9 bd
       -0.14973627 -0.16779006 -0.02723016 -0.09072819
0002e0 f8 c5 25 be 24 b0 85 bd 48 de 79 bd a1 16 12 be
       -0.161888 -0.06527737 -0.061003 -0.14266445
0002f0 aa 7f b8 3c 5f 62 66 bd 41 5f ed bc 4e 73 99 3d
       0.022521812 -0.056246158 -0.028976085 0.07492696
000300 0a c6 36 be d1 08 26 be e9 14 7f 3d e9 0b 90 bd
       -0.17848983 -0.162143 0.0622758 -0.07033522
000310 f0 c2 f8 bd 2a f7 4b 3d b2 f2 09 be f0 a5 8b 3c
       -0.121465564 0.04979626 -0.13471487 0.017046899
000320 e8 5b d2 ba 94 8b 66 be 6a 91 e6 3c 72 4e 07 3c
       -0.0016049119 -0.22514182 0.02814551 0.008258449
000330 91 17 26 be 6f ec 95 bd 21 ec 2a 3e 95 81 43 be
       -0.16219927 -0.07320487 0.16691639 -0.190924
000340 be 42 2c be a5 7a 0b 3d b6 4b 2d 3c 41 84 6b bd
       -0.16822335 0.03405251 0.010577133 -0.057499174
000350 d8 9f 6a bd a3 a3 47 3e 91 57 c8 3d ca 9e 5c bd
       -0.057281345 0.19496016 0.09782327 -0.05386237
000360 97 e7 ff bd 65 e8 48 bd 58 ed 79 bc 27 e9 87 be
       -0.12495344 -0.049049754 -0.015254341 -0.2654507
000370 7a b4 89 bd 93 2a 0b 3c b5 53 1c be c7 19 f0 3c
       -0.06723876 0.008494037 -0.15266307 0.029309167
000380 a7 4b 09 be 91 1f 48 be e7 53 61 bd 3d bc bd 3d
       -0.13407765 -0.19543292 -0.055011656 0.09264419
000390 ed 38 46 be 8c 97 b2 bd 3e bc 37 bc 7f 87 a3 bc
       -0.19357653 -0.087203115 -0.011214314 -0.01996207
0003a0 cd 1b fc bd a1 88 a5 3d 48 9a 24 bd eb 7d 4a be
       -0.1230999 0.080827005 -0.040186197 -0.19774596
0003b0 6c 93 ea bd 75 c3 42 be f0 81 86 be c5 75 80 bd
       -0.114539 -0.19019873 -0.2627101 -0.06272463
0003c0 73 23 a8 bd 4b 39 4e be 42 14 87 bd 82 34 73 3e
       -0.082098864 -0.20139043 -0.06595661 0.23750499
0003d0 f0 cd a1 bd ef a9 2c bd db e9 16 3e 29 18 3e 3a
       -0.079006076 -0.04215425 0.14737646 0.0007251525
0003e0 08 6c f1 bd 9e 6d 9f 3d 94 80 b4 bc ce 08 ac bd
       -0.117881835 0.0778458 -0.022033967 -0.08400117
0003f0 80 fa b4 bd 01 09 35 3e 48 07 90 bd 3b 06 c2 bc
       -0.088368416 0.17679216 -0.07032639 -0.023684612

pre_layer.7.bias f4 [32]
000000 d6 ba ac bd bd 4d 4b bd c2 a3 96 3d ef 44 4a bd
       -0.084340736 -0.049634684 0.07355453 -0.049382146
000010 79 24 dd bc 28 11 93 bb 33 73 a5 bd f8 fe 5c 3c
       -0.02699493 -0.004488129 -0.08078613 0.013488524
000020 63 0c 5e bc a5 c6 5a 3d 87 3d 12 3d d2 de c5 bc
       -0.013552758 0.0534121 0.03570321 -0.0241541
000030 ec 06 26 bd 8f 9b 23 3d 23 b3 79 3d cc ec 0a 3d
       -0.040533945 0.039943274 0.060961854 0.033917233
000040 8f 9c 3f bd 4d 99 8d 3c 5f c8 9c 3d 6b 5d 82 bd
       -0.046780165 0.017285014 0.07655405 -0.06365474
000050 8a 3f 71 3d 5d 9b 60 3c ef 6c 92 bd c8 0a 53 bd
       0.058898486 0.0137089165 -0.07149684 -0.051523954
000060 d3 83 19 3d d7 ee 80 3d 58 14 55 bd 52 aa bf bc
       0.037479233 0.06295555 -0.052021354 -0.023396645
000070 15 97 8f bc 07 5b 76 bd 5e 23 17 3c e6 f9 08 bd
       -0.017528096 -0.060145404 0.009224741 -0.033441447

pre_layer.8.weight f4 [32]
000000 0e 59 55 3f 43 ae ac 3f d1 f2 86 3f 8c d4 b6 3f
       0.8333901 1.349068 1.0542852 1.4283614
000010 9e a4 b6 3f 0e 6e af 3f eb 8f b6 3f fc 13 99 3f
       1.4268987 1.3705461 1.426267 1.1959224
000020 e9 da a2 3f db 1e a8 3f 78 c3 bd 3f b2 7f c7 3f
       1.2723056 1.3134416 1.4825277 1.5585845
000030 3f 85 9b 3f d2 d1 9e 3f c7 34 c9 3f 31 d3 b4 3f
       1.2150038 1.2407782 1.5719231 1.412695
000040 e7 21 f2 3f c3 18 a6 3f 9e b4 ad 3f 13 4a be 3f
       1.8916596 1.2976307 1.3570745 1.4866356
000050 6f 51 39 3f 16 f4 bd 3f cd b9 ac 3f 5f 93 f5 3e
       0.7238988 1.4840114 1.3494202 0.47963998
000060 3f 40 ce 3f 41 c6 9d 3f 59 4c b7 3f f9 e7 53 3f
       1.6113356 1.2326127 1.4320174 0.8277584
000070 ed e9 b6 3f ff 2b af 3f 66 71 b5 3f 5c 57 ad 3f
       1.4290138 1.3685302 1.4175231 1.3542285

pre_layer.8.bias f4 [32]
000000 37 27 07 be 68 f0 33 be 7e 83 fa 3b 07 4e ca 3e
       -0.13198553 -0.17572176 0.0076450696 0.39512655
000010 b0 c2 2d 3e 16 51 af 3e 34 13 91 3e 6d c4 b4 ba
       0.16968799 0.3424155 0.28334963 -0.001379145
000020 19 db a3 3e ab db 68 3e 42 5f 97 3e 68 08 09 be
       0.32003096 0.22740047 0.29564863 -0.13382113
000030 43 2d c8 3e aa 53 9b 3e 14 7c 92 bd e0 1e a6 3e
       0.39097032 0.30337268 -0.07152572 0.3244543
000040 1e eb e4 bd a7 84 f1 3e 82 4c 97 be 8a 2e 53 3e
       -0.111776575 0.47171518 -0.29550558 0.20623222
000050 cf 77 a8 3d 63 eb 93 3e 02 d2 85 3e 06 09 e0 3e
       0.08225977 0.28890523 0.26136786 0.43756884
000060 15 20 b8 3e ff 1b b1 3e 13 3b 28 3e 3e 0c b4 3e
       0.35961977 0.34591672 0.16428785 0.3516559
000070 cf 64 bd bd d2 28 07 3f 35 3b 6c 3e b6 fd b4 3e
       -0.09247743 0.5279666 0.2306946 0.35349816

pre_layer.8.running_mean f4 [32]
000000 08 70 1c bf b3 66 ac bf d9 19 79 be 1c bf bc 3e
       -0.61108446 -1.3468841 -0.24326266 0.36864555
000010 85 f4 7c 3f 3a c1 cc bd 76 19 64 3f dd 21 5f 3f
       0.9881061 -0.099977925 0.8910135 0.87161046
000020 53 5e fd be 5b a9 aa 3e e7 8b 30 40 58 29 82 bf
       -0.49486026 0.33332333 2.758539 -1.0168867
000030 10 39 ac bf f5 4d e0 bf 90 28 d0 be 6d d1 90 3f
       -1.3454914 -1.7523791 -0.40655947 1.1313912
000040 5a fa 36 bf 6f 7f db be 61 67 f0 be d5 79 d9 bf
       -0.71475756 -0.42870662 -0.46953872 -1.6990305
000050 5c a1 70 3e 38 fb c2 3f f4 51 45 bf 81 9b 9a bf
       0.23499054 1.5232916 -0.77078176 -1.2078706
000060 05 73 a1 bf cc 3c 16 bf 0a 55 af 3e b7 e1 7d bf
       -1.2613226 -0.5868652 0.34244567 -0.9917254
000070 4b 4e 5a bf 74 9f ef 3f 87 98 00 3e 98 57 06 be
       -0.85275716 1.8720536 0.12558185 -0.13119352

pre_layer.8.running_var f4 [32]
000000 ba 74 d4 3f c9 7e d0 3f 5f ff f2 3f 9b 39 f1 3f
       1.6598122 1.6288692 1.8984183 1.8845705
000010 49 54 4a 3f e7 28 b2 3f 3f 51 e5 3f d8 8d 03 3f
       0.7903486 1.3918732 1.7915419 0.5138831
000020 fc ec b0 3f 4a 3a 66 3f 0b 5b 9f 3f f4 5d de 3f
       1.3822322 0.8993269 1.2449659 1.7372422
000030 e9 ca 97 3f 4b 42 e4 3f e4 c3 98 3f 55 12 94 3f
       1.1858798 1.7832731 1.1934781 1.1568094
000040 47 2e 88 3f 92 7e e4 3f c5 b1 5a 3f 2f 62 c2 3f
       1.0639123 1.7851126 0.85427505 1.5186213
000050 e8 b8 09 3f 0c 2c 9d 3f 92 99 35 3f 94 9a 04 40
       0.5379777 1.2279067 0.70937455 2.0719347
000060 61 f4 d3 3f f8 c3 af 3f 92 76 a2 3f 7a c2 bc 3f
       1.6558954 1.373168 1.2692435 1.474685
000070 ed 79 f9 3f 54 23 76 3f 87 b4 ea 3f c6 78 94 3f
       1.9490334 0.96147656 1.8336343 1.1599357

conv4_1.weight f4 [1, 32, 1, 1]
000000 01 ca 1f 3e 26 74 34 3f ed 08 7e be 0e a8 ab be
       0.15604402 0.7048973 -0.24808092 -0.33526653
000010 65 ec 02 bf a8 68 c6 be e7 e1 0d bf 0e c0 d7 be
       -0.5114196 -0.3875172 -0.55422825 -0.42138714
000020 62 58 ad be 86 e7 ac be ea 07 0d bf d9 be 46 3f
       -0.33856493 -0.33770388 -0.550902 0.7763496
000030 10 03 be be f0 89 cf be f5 07 57 3f c2 a7 08 bf
       -0.37111712 -0.40534925 0.83996516 -0.5338098
000040 c2 62 9b 3f ad 69 a1 be e1 36 4c 3f 86 4c fb be
       1.2139513 -0.31525937 0.7977124 -0.4908182
000050 e8 1d 9a bd fa 31 02 bf fa 4e e9 be e8 8b e4 bb
       -0.075252354 -0.5085751 -0.45568067 -0.006974686
000060 03 c3 d8 be ce b6 dc be 6b 3d 04 bf 7a f0 28 be
       -0.42336282 -0.4310822 -0.51656216 -0.16497985
000070 cf f3 3a 3f 9e 33 d8 be 77 0c d8 be 13 b9 f4 be
       0.7302827 -0.4222688 -0.4219701 -0.4779745

conv4_2.weight f4 [4, 32, 1, 1]
000000 82 f0 54 bc 6d 05 4f bb be a3 2d bc 82 c6 6c bc
       -0.012996795 -0.0031588927 -0.010598121 -0.014451625
000010 97 26 98 39 57 4b 31 3c d3 7f b9 3b 66 b3 fb 3a
       0.0002902045 0.010821185 0.00566099 0.0019203245
000020 f4 d0 82 bd 74 b2 dc bc a4 90 c3 3a a0 da 9a 3d
       -0.06387511 -0.026940562 0.0014920426 0.07561231
000030 be 95 f0 3c e9 60 c8 bb 3b 3a 5d 3c 46 25 02 3c
       0.029368278 -0.006115068 0.013502653 0.007943457
000040 af 88 9f 3c 7f f0 93 3d 5c ff 8e ba 10 a9 83 bb
       0.019474356 0.07223605 -0.0010909843 -0.0040179566
000050 d7 b1 b6 bc f0 11 05 3b 62 73 db bc 1c 30 89 3d
       -0.022301598 0.002030488 -0.026788417 0.06698629
000060 bb d3 0b 3d 35 02 39 ba 84 c5 19 bd c6 da 8b bd
       0.03413747 -0.0007057519 -0.03754188 -0.06828837
000070 54 0b c5 bd 2c 86 6c 3c 8d b0 f7 bb ae d4 96 3c
       -0.09621301 0.014436286 -0.0075588883 0.01841196
000080 e9 6a 91 3d 4b 8a ec bc e4 88 02 be 26 5f 82 3d
       0.071004696 -0.028874537 -0.12747532 0.063658044
000090 46 2d 0f 3d 6f 47 ac bc 27 62 45 3b 55 50 ec 3b
       0.034955285 -0.021030156 0.0030118318 0.0072117248
0000a0 2e 94 fb bd 84 9b 56 3c a1 ba 92 bb a0 45 8f 3d
       -0.122841224 0.013098601 -0.0044778143 0.06995702
0000b0 7e d2 15 3d 53 1b 30 3d eb f3 ac 3c 6a f0 a4 ba
       0.036577694 0.04299481 0.021112403 -0.0012583856
0000c0 de 44 69 3b 14 d6 0d 3c 96 78 35 bc 63 e9 f9 3b
       0.0035594027 0.008656997 -0.011076113 0.007626699
0000d0 bc 9e e5 3b 48 90 a3 bb a9 b4 89 bb 9d d3 21 bd
       0.007007448 -0.004991565 -0.0042024446 -0.03950845
0000e0 c5 c6 00 bc ca c7 35 bd 61 26 5d bc 6d 05 d0 3c
       -0.00785989 -0.044379987 -0.01349792 0.025393212
0000f0 11 53 5b bd 6a 2a 4d bb 4b 6f 3e 3c 22 e4 47 3b
       -0.053546015 -0.0031305798 0.011623214 0.0030500968
000100 8c c6 cc bc a3 51 8d 3c 58 b1 e1 3d 1a ff 25 bc
       -0.024997018 0.017250841 0.11020154 -0.010131622
000110 81 97 1a 3c a9 f2 25 3c d7 36 91 bb 33 c4 2a 3a
       0.009435535 0.0101286555 -0.0044315862 0.00065142213
000120 41 5e 22 3c 58 ce 58 3c d5 d5 12 bb 3d bf 08 bd
       0.009910167 0.01323279 -0.0022405286 -0.033385504
000130 08 fe 09 3d 12 cb 95 bd e3 16 6b 3c 5f a9 0f 3a
       0.03368953 -0.07314123 0.014348718 0.00054802553
000140 9d 3c c8 38 2a 42 35 3d c1 63 d9 3a 36 9e 0b 3c
       9.548033e-05 0.044252552 0.0016585515 0.008521607
000150 a8 a6 13 3c 06 f6 c3 3b b9 7e b8 3b f8 34 0a be
       0.009011902 0.005980256 0.005630341 -0.13496768
000160 a5 6a 03 3c 1a 8f 74 bc d0 cf 22 3c 8a 66 97 bd
       0.0080210315 -0.014926696 0.009937242 -0.07392605
000170 ad a2 ba 3b c5 c5 92 3b e1 6c b1 bb 31 c4 1c bc
       0.005695662 0.0044791424 -0.0054145907 -0.00956826
000180 54 d3 f3 bc 1a f4 56 bd db 86 7b 3d 51 d6 98 bc
       -0.029763855 -0.052478887 0.061407905 -0.018656882
000190 47 32 a6 3d e8 5e 6d bc 7b 06 8f 3b 60 50 b8 b9
       0.081150584 -0.014487959 0.004364786 -0.000351551
0001a0 99 42 71 3c fe 05 ad 3d 95 64 90 bb 17 07 ed bb
       0.014725351 0.084484085 -0.0044065216 -0.007233511
0001b0 6c 38 bf 3c ec a6 45 bc db e0 77 3d 9c f8 5e bd
       0.023342334 -0.012063723 0.060517173 -0.05443631
0001c0 b4 16 8d bc 3e a8 93 bc da 9c 3a bd 35 b0 7d 3c
       -0.01722274 -0.01802456 -0.04555974 0.015483906
0001d0 73 e2 a2 3d af ff 32 bb 5c 7b 03 3d c8 75 5f 3c
       0.07953348 -0.0027313044 0.032100067 0.013638921
0001e0 99 07 c5 bc 06 7f b1 bd a0 34 d4 3c 08 b9 94 bc
       -0.024051474 -0.08666806 0.025904 -0.018154636
0001f0 2c c9 23 3d 31 61 24 b9 14 d5 05 3d 62 6d a0 bc
       0.039986774 -0.00015676465 0.03267391 -0.019583408

conv4_2.bias f4 [4]
000000 53 cd 34 3d 52 e3 51 bd de 2a d2 3c 4e 33 b8 3a
       0.044141125 -0.05124218 0.025655206 0.0014053376
