param6/r_net.pth (torch_old, 406319 bytes, 23 tensors)

pre_layer.0.weight f4 [28, 3, 3, 3]
00000000: 3f5d 243e 166c 39bd bbff 80be ec2b 14be
00000010: 0b7f ca3d 8239 43be 6da4 6fbe 587e 5c3c
00000020: 5b87 ad3d 86cb 1f3e eeb0 2cbe 4dfb 563d
00000030: 609c 9c3e 157e f53d 5543 3abc 7eb6 373e
00000040: e4ec 333d bd49 f93d 442d c7bb db04 08bc
00000050: 48e3 2dbe dbc0 963d 31d0 7c3e fb02 aebd
00000060: 74da 23be 45c2 273e d7fd 373e 01b2 c53d
00000070: a794 81bd 7c09 51bd d0a0 333e 9bc4 343e
00000080: 869f 343e a959 363c 3fd2 643e 6b23 5d3e
00000090: d1ff 42be 9d61 6f3d a3e6 053e 378c fe3d
000000a0: 0170 313e 3f77 2ebd 47a3 14be 932c 1cbd
000000b0: 5568 29be dcc2 b13c 7d76 7c3d 04e3 bcbd
000000c0: 1425 41bd 6cf4 20be 219b a13d fb18 39be
000000d0: b44e 25be a933 43be 8597 a2bd 3ca8 7e3d
000000e0: 7a6f 533e dabb 163e 5a2f 9ebb 9ca5 31be
000000f0: d409 2f3e 2f00 b9bd b870 01be ac83 00be
00000100: 1ea3 e9bc 9815 abbd 04f4 9bbe 040f b4be
00000110: 1922 38bc f7af b6bd 9b76 cfbc 91b0 f83c
00000120: 89dd 7bbd e0d8 f4bc d7b4 7b3e ecf5 b43d
00000130: 46aa a83d 75c2 1c3c f67d 693e 1db8 d23d
00000140: eccd 92bc c7a9 0c3e 6440 d23c 8419 10be
00000150: 95fd 8ebd fa17 853e da11 473e e24b 19be
00000160: 52b2 25be 883a 5abd 1ef3 de3c 58b5 04be
00000170: 8569 be3d 239d 393e 8af6 1d3e f849 ad3d
00000180: 9528 15be 68aa efbd 9437 d1bd e2d1 f73d
00000190: 7c97 803c eaa4 093d c25c d93d 913a 633e
000001a0: 7439 b83d eaa4 14be e02a 89be a38b 4ebd
000001b0: c2a4 76bd 51eb 7e3e 39cd 21be 8b52 393c
000001c0: e0fe b3bc e262 0fbd a9b7 04be b427 5c3e
000001d0: e2d5 bd3b 836f 27be 2ac7 373e 4583 983d
000001e0: 0169 b8bd e3c0 3b3e d235 70be a6eb 70bd
000001f0: 3f9a 2c3e 4266 ecbd c7ea 203d 132b 013e
00000200: 8532 91be e5f5 573c 5e09 f73d a026 343d
00000210: 2529 8fbd 43fc 0f3e 8da3 cebc 212b 243e
00000220: 6851 e3bd b8bd 6bbe ac0f 66be ab3c e2bd
00000230: 0e56 92be ad96 79bd 368d 65be ea3b ecbd
00000240: 9236 b4bd a37c 1cbe 1a69 ffbd d553 8a3e
00000250: 9a85 853d b243 0e3c 4922 673d 8a1c 4a3e
00000260: 8a0e 9c3d b1ee ecbd ef0a aebd c036 df3d
00000270: 8846 07be 4aeb 8ebe df1d 2abe 27e4 3a3e
00000280: 472d d9bd 2fdc 953d 0dc7 f8bd ca0f 5bbe
00000290: c94b 343d 88b1 a4bd d1a9 54be da2d 09be
000002a0: 4160 013e 4744 323c d729 853c 7d43 683e
000002b0: d7d8 263e 226f c23d 1899 203e 5104 433d
000002c0: 11f9 503e ca7e b73d 2c10 173e 41ae 843d
000002d0: 29ad 1dbe 1a5b 4a3c cf84 17be ed1e 2cbe
000002e0: 11f5 2b3e b4f8 fbbd 6812 31bd 8275 3cbe
000002f0: e8d4 bbbc f4a4 313e 0f19 063e f494 b9bc
00000300: bba5 85bd d2e1 023e ff63 f73d df99 55be
00000310: 8b9c 08be 1250 36be 22f1 0cbe 91e1 6ebd
00000320: c7ae aa3d f0dc 15bc e2df 1a3e cf37 3c3e
00000330: c07d 1bbd aff3 10be 9413 0fbd f091 a0bd
00000340: eb2d 3c3e c4c5 f0bd d9c4 2f3e 6ffb 96bd
00000350: 20e8 5d3e 9e02 50be 7384 31be af62 7d3d
00000360: 48cb 6d3e 3079 1e3e 4b6a 2c3e cb9c f8bd
00000370: 4534 293d d10b efbd ba94 923c 7632 59be
00000380: 5211 003d b95f 033c 5cf5 22be 9217 38be
00000390: dafd 98be 88fe 10be 82a5 5cbe e43a 333e
000003a0: f3c6 193e e567 5c3e 568a 123c c6d9 c9bd
000003b0: a4ed 8d3d 9773 e5bd cf7c 19bd 1e2c eebb
000003c0: 9c07 093e e861 273e 1116 4f3e f75a 29bc
000003d0: 6ef6 14bd 4728 ba3c ece6 05be 420a 77bd
000003e0: bcda 353e 0ef3 ddbd 9697 863e 9c78 8abd
000003f0: 3944 46be 27d5 9cbe 18cb 1f3d a340 86bd
0.16051196 -0.045269094 -0.25195107 -0.1446988 0.09887513 -0.19064906 -0.23402567 0.013457857
0.08473083 0.15604982 -0.16864368 0.052485753 0.30588055 0.11986939 -0.011368592 0.17940709
0.04392709 0.121722676 -0.006078394 -0.008301939 -0.16981232 0.07361003 0.24688794 -0.08496662
-0.16001302 0.16382702 0.17967926 0.09653092 -0.06327181 -0.051034436 0.17541814 0.17653124
0.17638978 0.011129775 0.22345828 0.21595542 -0.19042899 0.0584427 0.13076262 0.124290876
0.17327882 -0.04259419 -0.1451541 -0.038128447 -0.16543706 0.021699362 0.061636437 -0.09222987
-0.0471545 -0.1571824 0.078909166 -0.18075936 -0.16143304 -0.19062676 -0.07939056 0.06217216
0.20647994 0.14720097 -0.004827422 -0.17348331 0.17093593 -0.09033238 -0.12640655 -0.12550229
-0.028520163 -0.08353728 -0.30459607 -0.35167706 -0.011238598 -0.089202814 -0.02532511 0.03035763
-0.06149057 -0.02988857 0.24580704 0.088359684 0.08235602 0.009567847 0.22801957 0.10289023
-0.017920457 0.1373664 0.02566547 -0.14072233 -0.06981961 0.25994855 0.19440404 -0.14970353
-0.16181305 -0.053278476 0.027215537 -0.12959802 0.0929747 0.18126349 0.15426078 0.08461374
-0.14566262 -0.11702424 -0.10215679 0.12100579 0.015697233 0.03360454 0.10613395 0.2219031
0.08995333 -0.14516035 -0.26790524 -0.050426137 -0.06021572 0.24894454 -0.15800942 0.011311184
-0.02197212 -0.03500641 -0.12960686 0.2149952 0.005793319 -0.16351132 0.17947069 0.07446913
-0.09004403 0.18335299 -0.23458031 -0.05881848 0.16855715 -0.11542942 0.0392864 0.12614088
-0.28358856 0.013181184 0.120623335 0.04398215 -0.069902696 0.14061074 -0.025224471 0.16032077
-0.110995114 -0.2302159 -0.22466916 -0.11046728 -0.2858128 -0.06093471 -0.22417149 -0.11534865
-0.08799471 -0.1528192 -0.124712184 0.27017084 0.06519623 0.008683132 0.05642918 0.1973745
0.076199606 -0.11568964 -0.08498179 0.108991146 -0.132105 -0.27913886 -0.16612957 0.18251096
-0.10604339 0.07317387 -0.12147341 -0.21392742 0.044017587 -0.08041674 -0.20767905 -0.13396397
0.12634374 0.010880536 0.016255302 0.22681995 0.16293655 0.09493853 0.156834 0.04761154
0.20407511 0.0895973 0.14752263 0.06478549 -0.15398087 0.012350822 -0.14796756 -0.16808672
0.16792704 -0.12303296 -0.043230444 -0.184042 -0.02292867 0.17348081 0.13095497 -0.022654034
-0.06525751 0.12781456 0.120796196 -0.20859478 -0.13340966 -0.17803982 -0.1376386 -0.058320586
0.083341174 -0.009146914 0.15124467 0.18380664 -0.03796172 -0.14155458 -0.03493078 -0.07840335
0.18376891 -0.11756471 0.17164935 -0.07372176 0.2167058 -0.20313498 -0.17335682 0.06186169
0.23222077 0.15475917 0.16837423 -0.12139281 0.041309614 -0.11672176 0.017893184 -0.21210656
0.031266518 0.0080184275 -0.1591391 -0.17977741 -0.29881173 -0.14159596 -0.21547511 0.17502934
0.150173 0.21524008 0.008944115 -0.0985599 0.06930092 -0.11203688 -0.037472542 -0.007268443
0.13381809 0.16345942 0.20223261 -0.010336629 -0.036367826 0.022724284 -0.13076371 -0.060312517
0.17759222 -0.10837375 0.26287526 -0.06761286 -0.19361962 -0.30631372 0.039012045 -0.06555297

pre_layer.0.bias f4 [28]
00000000: e99c 8abd fd33 febd 9805 ffbd 9891 223e
00000010: 9e5f 2e3e 2159 1bbe dc77 b93c bf14 5bbe
00000020: bd70 18be 93b3 e7bd c052 253e 1f74 e7bd
00000030: 009b 0ebe 50d5 2abd 9f60 483d 464c 1cbe
00000040: e9ce ba3d d5fc acbd 1f57 6f3d 0b47 00be
00000050: 3ccf f23d 2389 cabc e4e4 91bd 7ed1 8cba
00000060: a690 c9bc 9fb4 0b3e 1525 2d3e 081e 9f3d
-0.067682095 -0.1241226 -0.12452239 0.15875852 0.17028663 -0.15170719 0.022640161 -0.21394633
-0.14886756 -0.11313548 0.16144848 -0.11301445 -0.13926315 -0.041707337 0.04892027 -0.15263471
0.09121496 -0.084466614 0.058432695 -0.125271 0.11855933 -0.024723595 -0.071237355 -0.0010743586
-0.024605107 0.1364312 0.16908677 0.077694

pre_layer.1.weight f4 [28]
00000000: f02b 7a3f 8376 303f e932 843f 600a 8d3f
00000010: 099e 6c3f 13e7 643f 2b24 863f b7d1 903f
00000020: fe27 623f 13cf 763f c1d3 a03f ff06 823f
00000030: 3fb7 4c3f b836 583f 1a85 413f 3d39 943f
00000040: bbd7 7c3f b301 6a3f d0ea 353f 92c2 793f
00000050: 457f 523f 380c 933f dd69 713f 3f11 773f
00000060: aba1 583f a151 863f 0761 8f3f c74e 913f
0.97723293 0.68930835 1.0328037 1.1018791 0.9242864 0.8941509 1.0479788 1.1314
0.88342273 0.9640972 1.2564622 1.0158385 0.7996711 0.84458494 0.7559372 1.1579968
0.9876668 0.9140884 0.7106142 0.97562516 0.8222545 1.1488104 0.9430216 0.9651069
0.84621686 1.0493661 1.1201485 1.1352166

pre_layer.1.bias f4 [28]
00000000: 47ad 99be f0ba b0bd 3212 24be b12c 453e
00000010: 25d2 61be a78f 84be 7c7b c13e a6c6 8e3e
00000020: f423 3abd defe 0dbe f592 2bbd 9038 8bbd
00000030: 8f04 25be 6ff3 6ebe 62bd 95be cf30 473e
00000040: 7a66 d4bd 4ee1 33be 5b2d 58be 6478 c13d
00000050: 6b64 e5bd a2fc 1b3e da8e be3d be63 62bd
00000060: 2cfc 59be 8fd9 423d 90b0 613e 11f9 273e
-0.30015013 -0.086294055 -0.16022566 0.1925533 -0.2205282 -0.25890848 0.37789524 0.27885932
-0.045444444 -0.13866755 -0.041888196 -0.06797898 -0.1611502 -0.2333505 -0.2924605 0.19452213
-0.10371108 -0.17566416 -0.21111052 0.09446791 -0.11200794 0.1523309 0.093045905 -0.055270903
-0.21287602 0.04757076 0.2204001 0.16403605

pre_layer.1.running_mean f4 [28]
00000000: 2e0b 4ebe 2a16 5a3c fe5d 02be 402f 0b3e
00000010: 5b2b 203e 8ba8 02be 6bbf 34bb c739 5cbe
00000020: 5dca 14be 6118 b6bd 2206 5ebd 16d5 8d3d
00000030: 2a7d 27be ee86 7ebd 805b 6c3d 0f8a 1fbe
00000040: c19a eb3d c6c6 343d 13c6 733c a3d6 3bbe
00000050: c528 0e3c bf12 673c 8326 21be 9c38 71bd
00000060: b45d ce3d 3c48 173e d127 433e 1006 c73d
-0.20121452 0.013310948 -0.12731168 0.13592243 0.15641539 -0.12759607 -0.0027579914 -0.21506415
-0.1453032 -0.08891369 -0.054205067 0.069254085 -0.1635634 -0.062140398 0.05770445 -0.15580009
0.11504126 0.044134878 0.014878768 -0.18343596 0.008676712 0.0141035905 -0.15737347 -0.058891878
0.10076466 0.14773649 0.19058158 0.09717953

pre_layer.1.running_var f4 [28]
00000000: 5282 283e f454 053e 673e 5b3d 80fe 853d
00000010: 7374 293d 2785 293f 6760 0f3d 0e1e 4b3d
00000020: e3a9 fb3c f430 693d 6844 5b3e 5ec9 2f3e
00000030: dd2f ea3c 3226 a73c 4a81 813e 2619 dd3d
00000040: cc6d 253d 3c93 1a3e 3966 143d 0035 2c3d
00000050: 6041 4e3e c439 b13d cae7 2d3d b0f0 293d
00000060: ec66 0c3f 1906 353d e675 7d3d 70fc ac3d
0.16455963 0.13020688 0.05352631 0.06542683 0.04137082 0.662188 0.035004046 0.04958921
0.030720657 0.05693145 0.21412814 0.17166659 0.028587276 0.020403955 0.25293952 0.10795812
0.040387914 0.15095228 0.0362303 0.042042732 0.20142126 0.08653596 0.04245738 0.041489303
0.54844546 0.04419527 0.061880015 0.08446586

pre_layer.4.weight f4 [48, 28, 3, 3]
00000000: 5417 c7bd e2e9 67be 0aa7 2ebd 8002 9bbd
00000010: 5a14 2bbe cf74 88bd d90b ed3d 987b 39bd
00000020: 9747 97bd 4b19 5b3d f776 0f3d 2bbd fb3d
00000030: 8d3c d7bc dd6d a0bc f412 793b c775 043d
00000040: 5a3d 2a3d 6e8d 8ebc c53e 2f3e 7dcd 963d
00000050: 171a de3c 55eb 903d e0c0 ce3c c642 04bd
00000060: 27ab f43d d539 61bd 6945 71bd 5a60 cfbb
00000070: e9f9 66bd 4c69 493d 57a9 d2bd e253 39bb
00000080: 892d 7f3d 5b44 943d 3518 973c 67fb a13d
00000090: 2981 56bd fe77 14be 30b8 cebd f3e4 0d3d
000000a0: 5804 b7bd 535c a4bd 7f25 093d e5b2 e63c
000000b0: 8199 5ebd bed5 01bb de09 cb3a 9240 c5bc
000000c0: 812f 1bba 044d 9ebb a87e 5c3c a3b0 b6bc
000000d0: 61b3 563d 4583 c93c fc36 52bd 9163 fcbd
000000e0: ba31 aebd bf0d 7ebd 3a32 dbbd 1a4e 04be
000000f0: 41ea 1dbd 03b1 653c 7453 b53c 1b91 94bb
00000100: 384c 843d 9a04 f23d 0422 1a3d 2886 89bc
00000110: 3e47 563d 824e f63d 5d54 0f3e 331c 3e3d
00000120: 7f6e b03d a902 ac3d f485 2c3d 7651 4fbc
00000130: e0d3 3fbd f6aa bdbb 6b15 87bc 449a c03d
00000140: 3da2 e63d b0d4 dfbd bc21 19bd f6c7 ccbd
00000150: ff39 3e3c c14c 89bd 966f 20bc 1766 28be
00000160: dde3 0abe a9d1 4b3c 00e7 01be 0210 5ebe
00000170: 0ad1 53be 25ac 163c abf1 b7bd 0a3d 18be
00000180: 883f bd3c 4cb5 bfbc 2a01 a73d 1226 de3d
00000190: 6a6f 5bbb 1e86 aebc cf46 c0bc 5d18 20bb
000001a0: d0b2 ef3c 134c aabc 1bf7 b0bd 9bbf 2abe
000001b0: 5ed0 18bd b9b3 0bbd a07e 02bd de0c 2ebe
000001c0: a822 cfbd 5dcf 1c3d e8de 47bd f2f8 8c3d
000001d0: a54c 213d 7c75 edbb 8bd0 d33d d80f 853d
000001e0: 1311 8abd acd8 8cbd f727 cd3c da6b 73bd
000001f0: 803c 983c 2d05 523b dd9b cfbd 12a5 b43c
00000200: 6fdd 4d3d 442f debd d7a0 9dbd 3681 da3c
00000210: 4caf 1cbd c201 9dbd fc79 583d b60a 0cbe
00000220: be48 45be baf7 2ebe c0b7 b4bd d449 60be
00000230: 406f 03be 6091 613d 5083 403c c140 72bd
00000240: 1c39 80bc 1ac3 cdbd 8b68 0abe 9e7f 96bd
00000250: d0ad 9bbc 289b 85bd 2e03 7e3c 4bf5 aabd
00000260: 14e7 bfbd 211e 533d e2bf bc3c 5d36 823d
00000270: 4a3c 60bc 8a47 1d3d d422 423d 441f 153e
00000280: 44d2 123e b98a e63d 9d83 a8bd 2229 06be
00000290: d1a4 23be a5e9 08be 7e05 2cbc 18c4 f4bc
000002a0: 27cb 18bd 3cb0 08bd f8a8 c63d 24cb d73d
000002b0: 8f99 ab3c e423 82bc 9a4a 66bd a314 a3bd
000002c0: 6d08 f2bd 4d8e fdbc 2722 9abd 3219 e9bc
000002d0: 5b14 a1bc 023c e9bd e363 9dbd ccb7 c73d
000002e0: ef4d a5bc 5a0a 03bd 56e4 e33d 51e2 87bc
000002f0: c346 993c af39 60bd f3a7 6abe 2d51 36be
00000300: c9b1 dcbd 6332 e7bd cf2a 44be 4629 05bc
00000310: 950e 0bbe d288 64bd a61b 14be 4d4d 66be
00000320: 9482 40be 285b 11bd 72da 273c 4f45 5cbd
00000330: baab 853d 069d c23d ab9b a93d 83bc c3bd
00000340: cfcd 8dbd 0bfc b93d 46f1 dcbd 1dce 333d
00000350: fd77 3f3d f1c9 56bd c686 ecbc 936f 713d
00000360: 100b 93bc 4fe2 743d 4731 a43d da73 81bd
00000370: 22ba 18bd 7b83 0fbd 1a10 9ebd 7f8d d4bd
00000380: d3d2 f93c 3ed0 b63d 7019 d03b ca2b e63d
00000390: 6ceb 02bd d144 323d 158d 133d fe84 373d
000003a0: 99ca 2c3d f98f b63b a869 9cbc 4880 ca3d
000003b0: 9a59 af3d fd50 9a3b 858d afbd d592 67bd
000003c0: 663a 22be 59a5 2fbd 4c2c 0b3e 2e17 683c
000003d0: 385d 3f3d c6c9 f63d acf4 933d dfd8 67bd
000003e0: a072 173c 9e8c a5bd 2015 57bd 7909 ee3c
000003f0: 5bec e9bd 1cdb ac3a 0e38 94bb 7be3 94bd
-0.09721246 -0.22647813 -0.04263977 -0.07568836 -0.16706982 -0.066629045 0.115745254 -0.045283884
-0.073867016 0.053490918 0.035025563 0.1229194 -0.02627399 -0.019583637 0.0038005682 0.032338884
0.041562416 -0.017401423 0.17113788 0.073634125 0.02711205 0.07076136 0.025238454 -0.032290243
0.11946707 -0.054986794 -0.058904085 -0.0063286247 -0.056390677 0.049172685 -0.10286205 -0.0028278758
0.062299285 0.072396 0.01844416 0.07909279 -0.05236927 -0.14498898 -0.10093725 0.03464217
-0.089363754 -0.08025422 0.033483025 0.028161475 -0.05434561 -0.0019811238 0.0015490612 -0.024078641
-0.00059198594 -0.0048309583 0.013457932 -0.022301024 0.052417163 0.024598727 -0.05132197 -0.12323678
-0.08505578 -0.062024828 -0.10702939 -0.12920418 -0.03855348 0.014019254 0.02213452 -0.0045338995
0.0645985 0.11817284 0.037630096 -0.016787603 0.052314036 0.12026693 0.13997026 0.04641361
0.086148255 0.08398945 0.042119935 -0.012653699 -0.04683292 -0.0057882024 -0.016489705 0.09404424
0.11261413 -0.10929239 -0.037385687 -0.09999077 0.011610507 -0.06704093 -0.009792229 -0.16445194
-0.13563485 0.012440124 -0.12685776 -0.21685794 -0.20685211 0.009196316 -0.089816414 -0.14867035
0.023101583 -0.023401879 0.08154519 0.10847105 -0.0033483156 -0.021304186 -0.023471264 -0.0024428584
0.02926007 -0.020788228 -0.08640882 -0.16674654 -0.03730809 -0.034106944 -0.03185904 -0.16997096
-0.10114032 0.038283695 -0.048796564 0.0688342 0.039379735 -0.0072466712 0.10342511 0.064971626
-0.06741538 -0.068772644 0.02504347 -0.059429027 0.018583536 0.0032046542 -0.101371504 0.022051368
0.050260004 -0.10848859 -0.076966934 0.02667294 -0.038253114 -0.07666351 0.05285071 -0.13675961
-0.1926603 -0.17086688 -0.0882411 -0.21903163 -0.12835407 0.05507028 0.011750057 -0.059143785
-0.015652232 -0.10046978 -0.13516442 -0.0734856 -0.019003779 -0.06523734 0.015503688 -0.08347567
-0.093702465 0.051542405 0.023040716 0.06358025 -0.013686249 0.038398303 0.047396496 0.14562708
0.14338022 0.11256928 -0.08228228 -0.13101628 -0.15980841 -0.13370378 -0.010499356 -0.029878661
-0.037303116 -0.033371195 0.09700197 0.10536793 0.020947246 -0.015886255 -0.05622349 -0.079629205
-0.11818013 -0.030951643 -0.07526045 -0.028454397 -0.019663027 -0.11388399 -0.076850675 0.09751853
-0.020178763 -0.031992294 0.11127536 -0.016587408 0.0187105 -0.05474251 -0.2291563 -0.17804404
-0.10776097 -0.112889074 -0.19156955 -0.008127516 -0.13579781 -0.055794545 -0.14463672 -0.22490425
-0.18799812 -0.035487324 0.0102449525 -0.053777035 0.06526895 0.09502606 0.082816444 -0.0955744
-0.069240205 0.090812765 -0.10788207 0.043897737 0.04674529 -0.05243868 -0.028872859 0.058944296
-0.017949611 0.059786137 0.080172114 -0.06320925 -0.037286885 -0.0350375 -0.07717915 -0.10378551
0.030496037 0.08926438 0.0063506886 0.11238821 -0.031962797 0.04352266 0.03602322 0.044804566
0.0421854 0.005571362 -0.01909335 0.09887749 0.08562012 0.0047093616 -0.085719146 -0.056536514
-0.1584259 -0.042882297 0.13591117 0.014165683 0.04671976 0.12050204 0.07224402 -0.05660331
0.009243637 -0.08083461 -0.05251038 0.029057251 -0.11422034 0.0013187858 -0.004523284 -0.07269951

pre_layer.4.bias f4 [48]
00000000: e891 a5bc 6825 b73b 72ea 093c f9f8 54bc
00000010: cf02 efbb b8fc 53bd 2874 71bd 0f98 78bd
00000020: b616 62bd a827 0cbd e818 23bc 6ada 1bbd
00000030: 7f49 663d ed4d 353d b0da 203d 693f 49bd
00000040: 4019 313d e631 69ba f3fc 1abd d78b 443d
00000050: 6f3a bdbc cd8e 123d 26cf 323d ca92 75bd
00000060: c78e b8bc 6437 0d3d 4fec 25bd 58bd 57bd
00000070: 1a50 df3a beb0 523d 4cc4 673d d3d3 1e3d
00000080: 8682 cd3c 7e1d 313c 0743 5e3d 4896 283d
00000090: 069c 32bd ce76 60bd 670d 1e3d 9f61 60bd
000000a0: 4fcc 0c3d 61ab 6f3d 014a 67bd 2b45 503c
000000b0: 4dce 5ebd 51ce 5a3c 8545 5abd 47e4 0bbd
-0.020211175 0.005589176 0.0084177125 -0.012998813 -0.007294036 -0.051754683 -0.058948666 -0.06069189
-0.05519744 -0.034217507 -0.009954669 -0.038050093 0.056222435 0.04426377 0.039271057 -0.04913274
0.04323697 -0.000889568 -0.037838887 0.047984924 -0.023099152 0.035780717 0.043654583 -0.059954442
-0.022529019 0.034476653 -0.040508565 -0.052670807 0.0017037422 0.051438086 0.056583688 0.03877623
0.025086652 0.010810254 0.05426314 0.041158944 -0.043605827 -0.0548008 0.038587 -0.0547806
0.03437453 0.05851305 -0.05646706 0.012711803 -0.054395963 0.013354854 -0.053288955 -0.03415325

pre_layer.5.weight f4 [48]
00000000: e47b 853f 9734 5e3f 1894 753f 9b80 7d3f
00000010: 2a23 723f 62fa 843f b93c 803f 5385 783f
00000020: a0b9 823f a2ac 803f ec41 7b3f dca4 803f
00000030: 48f1 9a3f fe74 603f 138a 613f a58c 913f
00000040: ee73 703f e63d 7e3f f7a3 763f 0446 813f
00000050: 7ebe 873f 4c28 853f bfce 733f f334 833f
00000060: 8e2d 693f ba00 6c3f 6aa2 803f c290 8b3f
00000070: 0191 883f b06e 763f cf32 943f 2460 813f
00000080: c828 873f 0680 843f e0ef 893f dd49 8d3f
00000090: 46ce 773f 73b0 863f cc31 763f 0772 7b3f
000000a0: e070 6e3f d1a7 773f fd27 873f 10ec 7d3f
000000b0: 6d95 723f 261c 8f3f ab41 853f 9817 613f
1.0428433 0.86798996 0.959291 0.9902436 0.94584906 1.0388911 1.0018531 0.97078437
1.0212898 1.0052683 0.98147464 1.0050311 1.2104883 0.87678516 0.8810131 1.1371046
0.93926895 0.993132 0.9634394 1.0099492 1.0605009 1.0402923 0.95237345 1.0250534
0.91085136 0.9218861 1.0049565 1.0903552 1.0669252 0.96262646 1.1578006 1.0107465
1.055932 1.035157 1.0776329 1.1038166 0.96799123 1.0522598 0.96169734 0.98220867
0.93140984 0.9674044 1.0559078 0.9918833 0.94759256 1.1180465 1.0410665 0.87926626

pre_layer.5.bias f4 [48]
00000000: c7b5 2b3c cf88 04be 67cc 0f3d 2969 fabd
00000010: 0ec0 fabc 6a4d 43be 6ad3 f5bd a134 02be
00000020: 33c0 54be a369 f33c 6002 e0bd 836d bcbd
00000030: 655a 8e3d 0943 21bd 14af adbc 364e 5fbe
00000040: cfa7 323d 89d9 373d 7285 cebc 7902 ddbd
00000050: abb3 b9bd 211a 2b3e 9e18 34be c7a7 b03c
00000060: 2b2b 313d e507 dabd 239b 21be 99e3 26be
00000070: 5c2f 1abc 4aee 9b3d dc2d 213d 91ad dfbc
00000080: 4cfc 7b3e 0fac 60be 4d42 833d 014f 4ebe
00000090: d4d3 d9bd decc 1e3e fad8 0fbc fe8c bdbd
000000a0: 5ea7 8dbd cbde 9bbd b6a9 4ebd 09fd 47bc
000000b0: 4881 1cbe 4a4b 19be 9669 37be 11e4 1fbd
0.010480351 -0.12942813 0.035107043 -0.12227089 -0.030609157 -0.190725 -0.12003215 -0.12715389
-0.20776443 0.029713457 -0.10937953 -0.09200575 0.06950835 -0.03937057 -0.021201648 -0.21807179
0.043617066 0.044885192 -0.025210116 -0.10791487 -0.09067472 0.16709186 -0.17587516 0.021564377
0.04325406 -0.10646037 -0.15781836 -0.16297759 -0.009410705 0.076138094 0.039350376 -0.027304443
0.24607962 -0.21940635 0.0640913 -0.20147325 -0.10636106 0.15507838 -0.008779759 -0.09255408
-0.069166884 -0.07610854 -0.050454818 -0.012206324 -0.15283692 -0.14970127 -0.17911372 -0.03903586

pre_layer.5.running_mean f4 [48]
00000000: e9fb 3fc0 80ac e0bf 763f b2bf f910 15c0
00000010: 074b 373f 94ab acbf c840 15c0 f980 1fbf
00000020: c0ac 44c0 7f48 56c0 5561 f2be 7051 25bf
00000030: 97fd aabf 8491 e73f 4397 113f cf80 05bf
00000040: 0591 84be f458 19c0 aea6 91bf 5833 0ec0
00000050: 92d3 d3bf 7a70 d7be 402f c8bf 1dcd a8c0
00000060: 25d0 0e3f a840 1d40 867a 8abf 8baa f8bf
00000070: 113a 25c0 b4ab 0bc0 1823 aabf e07b bfbf
00000080: f649 63bf fbca 92bf 5bf1 9dc0 eb5f 72c0
00000090: 2bac 0fbf 2184 f5bf 3afb 26bf af51 c9bf
000000a0: 50c7 47bf afbd 3fc0 d644 ee3b 54f7 80c0
000000b0: a23c d1bf 500a 3fc0 1041 0bc0 d754 f93c
-2.9997504 -1.7552643 -1.3925617 -2.329161 0.7159886 -1.3489861 -2.332079 -0.6230617
-3.0730438 -3.3481748 -0.47339883 -0.6457739 -1.335864 1.8091283 0.5687143 -0.5214967
-0.2589189 -2.3960543 -1.1378992 -2.2218838 -1.6548941 -0.42078 -1.563942 -5.2750382
0.55786353 2.4570713 -1.0818641 -1.9427046 -2.581669 -2.182355 -1.329196 -1.4959679
-0.8878473 -1.1468195 -4.9357123 -3.7871044 -0.5612208 -1.9180948 -0.6522709 -1.5728053
-0.780385 -2.9959524 0.0072713895 -4.0301914 -1.6346629 -2.9850044 -2.175846 0.030435963

pre_layer.5.running_var f4 [48]
00000000: c343 b140 670c af40 4685 bb40 1af0 7a40
00000010: ed27 fd40 367c 2840 0e10 e540 5984 7e40
00000020: c097 ec40 e1b6 b940 e355 9c40 09cd 5040
00000030: cc50 1a40 e3d1 4940 9658 1840 bdfc 6940
00000040: 2bbb 7240 51c6 2640 f117 2440 eec2 7b40
00000050: 0b85 0140 23b0 9b40 6ab3 c040 c364 2841
00000060: ac7b 4f40 33e6 ce40 d21d 8a40 17fb 9740
00000070: 1d88 6d40 fd74 8940 48ee 3d40 39ea 4340
00000080: f663 6840 b2a4 6e40 f4cf 3441 d24c e040
00000090: bdde 4840 de6a db40 44dc 9e40 db7c e440
000000a0: af47 3840 003d 0341 3250 aa40 ba68 d240
000000b0: 5400 5540 f6af df40 5fe6 2940 9cc5 8f40
5.5395217 5.470264 5.8600187 3.9209046 7.9111238 2.6325812 7.15821 3.9768279
7.393524 5.803574 4.885484 3.2625144 2.4111814 3.1534355 2.3804069 3.656051
3.7926738 2.6058543 2.5639613 3.9337726 2.0237453 4.865251 6.021901 10.5246
3.2419233 6.4656005 4.31614 4.7494006 3.7114327 4.295531 2.9676685 3.0611708
3.6311011 3.7288022 11.30077 7.0093775 3.1385949 6.8567953 4.964388 7.140241
2.8793752 8.202393 5.3222895 6.575284 3.328145 6.9902296 2.6546857 4.492872

pre_layer.8.weight f4 [64, 48, 2, 2]
00000000: 5be0 87bc df23 afbd b6fd babd 5295 363c
00000010: daba 18be 59a5 e7bd 552a d6bc ee9c b6bd
00000020: fea2 e93a 74bc 4fbd 1f89 6f3d af37 44bd
00000030: 2348 c8bd 40c2 1e3e c682 b0bc 0b40 6dbd
00000040: 9908 84be e0ba e6b9 ce73 ebbd 6117 d6bd
00000050: d6e1 3c3b f9b8 e6bd 1d2b a03d f058 16be
00000060: 6d7a 053e 9192 c4ba 340e 073e 585b 933c
00000070: 915f 42bd a14b 2ebd 52c1 c6bc fb7f 6e3a
00000080: 0970 903d d0be 5cbd 1754 ba3c a850 823d
00000090: 11b0 ec3c ea40 11be ff34 e83d 3995 833c
000000a0: 408d 1bbe 9db4 d5bd 0aba 23be 28ef 89bd
000000b0: ca22 563b f49f ca3d c54a 2a3c 57ab 14bd
000000c0: 090c ccbd 48b0 13be a73f 033e 6248 8cbd
000000d0: ed0a 63bd 5b0a 09bd 0867 5cbd b995 cbbd
000000e0: 1940 27be 05de c9b7 e159 df3d a0a4 f93d
000000f0: a001 683d ca41 1abe d37a 3c3e edd3 b43d
00000100: 22da a93b 667e e63c f997 463d 6809 4fbd
00000110: e21b efbd fecb 263c 8207 d9bd f1c6 61bd
00000120: 42e5 e53c 1503 ee3c c39d 42bd 9006 3fbd
00000130: 7c69 ab3d 84d3 95bc a75d 063e ec8d 483d
00000140: 45c5 bbbd 8793 963b b732 22bd cc98 56bc
00000150: 6e51 b33c 4ee6 c93d e5e6 41bc f9c9 6cbc
00000160: 2435 6dbd 4f2c 543d c56f 30bd a108 8b3d
00000170: 4fd9 163e 4eb9 a4ba 34cf 1d3e 4b48 0f3e
00000180: 3280 34be d915 37be 68e4 abbd 9646 14bc
00000190: 17d0 96bd 9c3d 8abd 6514 0bbd 4e6f d3bb
000001a0: 66fc 3cbc f9b0 babc 1fdd 58bd 6a46 d1bd
000001b0: 79ab 213d 1406 143d 4bdf 023e a59a a4bd
000001c0: 2c7e dc3d 5303 133b 7174 9f3d 405e 43bd
000001d0: 9f8e b33d 6471 27bc e810 c0bd 9768 15be
000001e0: 0a22 c13d 05fe 203a ccb3 01be 5054 f23c
000001f0: 480e 24be 903e b1bd 8586 87bd edf3 06be
00000200: 6a7f ae3c 20aa ac3d 40f1 d0bd 6a2b f2b8
00000210: bbcc 10be 56b2 063a 9543 143d a747 e33c
00000220: 998b 4e3d 3138 afbd ce88 8d3b b14a 45bd
00000230: 3cdc 5dbd 1a77 1fbe 8f45 173e c8d5 be3d
00000240: f191 983d f61d 16bd a64f bdbd 3966 b83c
00000250: b90c c03d fa29 b9b9 3770 3a3e 9f15 e03d
00000260: 9678 953c 32f6 eb3d a38e ea3d 9e4e b039
00000270: 0279 1a3d f526 e83d 9480 6d3e 061e a03d
00000280: e0dd 233d 2b6c be3d 24a8 04be 0912 eb3b
00000290: c5b1 9b3d d365 a93d ac58 973d 33a9 95bd
000002a0: 45c3 9fbd b9e0 90bd 7bc4 0a3d 7d9f e8bc
000002b0: 93db b1bc b5c5 77bd fa9c e7bd 90d9 15be
000002c0: efe3 6c3d 86be 7f39 6cf6 903d 1031 fabd
000002d0: 38be 17be ce89 d2bc 7740 e2bd ca9f e03c
000002e0: 9d61 04be fc7e 5bbc 7486 efbd b6ce eebc
000002f0: fb7a 43bd e832 393e 03f2 a03d 285d bf3d
00000300: 84d0 a9bd 7b73 01be 2389 07bd a9ee 223d
00000310: 43b4 b0bd ff8e 27be 485a a8bd 1454 863d
00000320: c906 4ebd 11b2 a2bd 0e4b e43b 50a7 533d
00000330: 6abb e6bd 4e4f 12bd 36b5 45bd d6b6 9fbd
00000340: 6788 9fbc f677 cabd f7a5 173e 4ffe a8bd
00000350: 9595 e83d 09de 6ebd c5d9 29be 9b65 5cbb
00000360: 42d2 39be d80b 47be e7ec a1bd 124d 14be
00000370: cb6c 38bd a62c fdbd 6ceb e7bd 4b8b 5fbd
00000380: 2434 7dbe 6f9b 8fbe 7e8b 63bd 5052 35be
00000390: c79d 1c3d 16bf 8f3c 50f5 3b3d bf2e 75bd
000003a0: 0353 c23b 35e1 c6bd c1c5 9fb9 e8d2 953d
000003b0: 775c f7bd 524e cc3d fcce 20bd 3acf 46bc
000003c0: 81c8 c8bd 4d25 cc3c ea2d b83b 0341 2f3e
000003d0: 14ed b83d 725b 693d 525c 5abd e8b5 e2bd
000003e0: 56ad aa3d 3112 1bbb 76e1 3a3d bcf9 a83c
000003f0: 3a40 53bd 5aad 49be e9ea 043d 9114 d73c
-0.016586473 -0.08551764 -0.09130423 0.011143999 -0.14915028 -0.113108344 -0.026143232 -0.08916651
0.0017825065 -0.050716832 0.05848038 -0.047904667 -0.09779384 0.15503788 -0.021546733 -0.057922404
-0.2578781 -0.0004400825 -0.11496697 -0.10453678 0.0028821132 -0.112657495 0.07820723 -0.14682364
0.13034983 -0.0014997293 0.13189012 0.017987892 -0.04745442 -0.042552594 -0.024262104 0.000909805
0.07052619 -0.05389291 0.022745175 0.0636304 0.028892549 -0.14184919 0.11338233 0.016062366
-0.15190601 -0.1043484 -0.15988937 -0.067350686 0.0032674544 0.0989379 0.010393803 -0.036296215
-0.09963233 -0.14422715 0.1281725 -0.068497434 -0.05543034 -0.03345714 -0.053809196 -0.09940667
-0.16333045 -2.4064453e-05 0.10905815 0.12189603 0.056642175 -0.15064159 0.18406229 0.08829484
0.005183474 0.028136443 0.048484776 -0.05054608 -0.1167524 0.010180471 -0.10597135 -0.055121366
0.02806342 0.029054204 -0.047513735 -0.046637118 0.08369729 -0.018289335 0.13121663 0.048963472
-0.091684856 0.0045952233 -0.039599147 -0.013097953 0.021889415 0.0985838 -0.011834835 -0.014452451
-0.057912007 0.05180007 -0.04307534 0.06788755 0.14731334 -0.0012567432 0.15411073 0.13992421
-0.17627028 -0.17879428 -0.083931744 -0.009050032 -0.07363909 -0.06750032 -0.033954997 -0.0064524775
-0.011534786 -0.022789465 -0.052945253 -0.102185085 0.03947017 0.03613861 0.12780492 -0.080373086
0.10766253 0.0022432401 0.07785881 -0.047697306 0.08767437 -0.0102199055 -0.093782246 -0.14590679
0.094303206 0.00061413675 -0.12666243 0.029581219 -0.16021073 -0.08654511 -0.066174544 -0.13178988
0.02130099 0.08430886 -0.10202265 -0.00011547546 -0.14140598 0.00051382685 0.036197264 0.027744127
0.0504261 -0.085556395 0.004319287 -0.048166934 -0.05416511 -0.15572777 0.14772628 0.09318119
0.07449711 -0.036649667 -0.09243707 0.022509681 0.09377427 -0.00035317225 0.18206869 0.10941624
0.018245976 0.115215674 0.11452987 0.0003362791 0.03771306 0.113355555 0.2319358 0.078182265
0.04000652 0.09297975 -0.12954766 0.007173781 0.07602266 0.082713746 0.0738996 -0.07307663
-0.078009166 -0.070741124 0.033878785 -0.028396362 -0.021711146 -0.060491282 -0.11309238 -0.14633775
0.057834562 0.0002438967 0.07078251 -0.12216389 -0.14818656 -0.025700476 -0.11047452 0.027419943
-0.12927862 -0.013396975 -0.11695567 -0.029151302 -0.047724705 0.18085825 0.0785866 0.0934394
-0.08291724 -0.12641709 -0.03308977 0.039778385 -0.08628132 -0.16363142 -0.08220345 0.065590054
-0.05029944 -0.0794412 0.006966955 0.051673234 -0.11266215 -0.035720162 -0.04826852 -0.07798545
-0.019474221 -0.09886162 0.14809404 -0.082516305 0.113566555 -0.058317218 -0.16586979 -0.0033629898
-0.18146613 -0.19438112 -0.07906514 -0.14482525 -0.045025628 -0.12362032 -0.113242 -0.0545762
-0.24726921 -0.28048274 -0.055552952 -0.17707181 0.038236406 0.017547172 0.045888245 -0.059859034
0.005930306 -0.097109236 -0.0003047418 0.07315618 -0.12078183 0.09975876 -0.039259896 -0.012134368
-0.09803868 0.02492013 0.0056207078 0.17114644 0.09029594 0.056971975 -0.0533107 -0.11069852
0.083338425 -0.0023661966 0.045625173 0.020626895 -0.051574923 -0.19695035 0.03245059 0.026254924

pre_layer.8.bias f4 [64]
00000000: 46eb d7bc 7863 e4bc 308a b8bb a903 8ebc
00000010: e773 5f3d a5e5 5c3d 00d8 22bd a650 f33c
00000020: 470a 8ebc 2fb1 0abd 9816 5fbd 9e44 36bc
00000030: 2cb1 7abd 920d a0bc 0c39 8f3d 3808 563d
00000040: d71b 01bd 291d 1f3c 3479 dabc 7865 34bc
00000050: f33f 2fbd c6aa 163d 9299 3cbc 82f6 72bd
00000060: 57d1 38bd 2a74 823d 163f 223a a889 0dbd
00000070: c11c 75bd 8a43 693d 2c81 823d 8671 4abd
00000080: a6df 7b3d b33f d1bc ef13 3c3c 9786 09bd
00000090: c556 97bc 5c20 2f3d a5b4 39bd 4f6b bfbc
000000a0: 4f26 883d 6ef0 3a3d 4c9b 233d 3c94 5c3d
000000b0: 09a7 143a e582 713d 6281 313d 87cc 01bb
000000c0: 0ba8 4b3d 5985 313d eb4a 733c 6fe8 c6bc
000000d0: 2e14 9dbc 47f5 89bd cee4 743d da1f 5f3d
000000e0: c86e 8bbd d629 4c3d 616d 033d da2d a33c
000000f0: 5e2c 67ba 7354 34bd 6407 45bd c13d e03c
-0.026357304 -0.027879462 -0.0056317076 -0.01733573 0.054553892 0.053929944 -0.039756775 0.029701542
-0.017338885 -0.03386038 -0.054464906 -0.011124758 -0.06120412 -0.01953772 0.06993303 0.05225393
-0.03152069 0.009711542 -0.026669122 -0.01101052 -0.042785596 0.036783956 -0.011511223 -0.05931712
-0.045121517 0.06369813 0.000618921 -0.034555107 -0.059841875 0.056949176 0.06372294 -0.04942467
0.061492585 -0.02554307 0.011479362 -0.03357562 -0.018473992 0.04275547 -0.04533829 -0.023366598
0.06647932 0.045639448 0.039943025 0.053852305 0.0005670642 0.05896272 0.04333628 -0.0019805746
0.049720805 0.04334006 0.014849405 -0.024280755 -0.019174661 -0.06736236 0.059788518 0.054473735
-0.06808239 0.049844585 0.032086734 0.019919325 -0.0008818562 -0.04402585 -0.04810275 0.027373197

pre_layer.9.weight f4 [64]
00000000: 2684 5f3f 7f22 713f 3694 723f d043 4d3f
00000010: ac2a 5b3f 5e3e 553f f197 583f 0c01 813f
00000020: 6969 693f bf95 6e3f b2e6 953f 5797 843f
00000030: f3d7 723f 0275 823f 0169 733f 49fa 743f
00000040: 9dc4 703f 0929 5b3f 38ca 623f b318 6b3f
00000050: b6ed 7d3f 3235 7a3f 05fb 813f 5d5f 873f
00000060: 7e56 693f f1a8 613f 0b53 723f 007a 8a3f
00000070: 5082 7a3f ee05 773f 9c46 6b3f 427c 603f
00000080: 2fbb 6d3f d452 863f 2b2a 7f3f 74ec 553f
00000090: a771 553f 6c26 703f 8d33 613f 441b 753f
000000a0: 149f 7c3f 707f 8c3f c356 643f 9842 793f
000000b0: 263e 623f 0dcf 873f 2379 6b3f 5554 803f
000000c0: ffe9 603f cb6b 8b3f 7afe 6f3f 5b89 8a3f
000000d0: 31a8 653f f67a 5c3f 8ea1 753f cd63 603f
000000e0: 110f 753f 5436 793f 495f 713f 95b6 6e3f
000000f0: 53ac 5a3f d682 623f 6796 603f e2d7 793f
0.8731102 0.9419326 0.947574 0.801816 0.8561199 0.8329829 0.84606844 1.0078444
0.9117647 0.93197244 1.1711028 1.0358685 0.9486076 1.0191958 0.950821 0.95694405
0.9405001 0.8560949 0.8858981 0.91834563 0.99190843 0.9773742 1.015473 1.0575978
0.911476 0.8814841 0.94657964 1.0818481 0.9785509 0.96493423 0.91904616 0.876896
0.92863744 1.0494027 0.9967372 0.83563924 0.83376545 0.9380863 0.87969285 0.9574473
0.98680234 1.0976391 0.8919489 0.9736724 0.8837608 1.0610062 0.91981715 1.0025736
0.8785705 1.0892271 0.93747675 1.0823168 0.89709765 0.86125124 0.9594964 0.87652284
0.95726115 0.97348523 0.9428602 0.9324735 0.85419196 0.8848089 0.87729496 0.97595036

pre_layer.9.bias f4 [64]
00000000: 22ac 08bd 0401 07be ce88 a3bd 7932 0abe
00000010: 71bd 02be 87d5 edbd d093 bcbd 8854 e3bd
00000020: 8628 cdbd 3459 b13c e4f2 6fbe 8430 d6bd
00000030: ba13 07be 3d22 7ebd 1250 65bd 039f cfbd
00000040: b510 aabd 5e1d f8bd 1e03 c4bd ae42 aebd
00000050: ce03 b1bd 1642 68bd 2de1 6ebc 9cc2 bcbd
00000060: 7631 00be 43e9 f4bd c75f cdbd 9b06 d2bd
00000070: e792 64bd 1bdc 303c 64a5 a4bd 48c0 d5bd
00000080: 336c b0bd 040f 20bd b111 35be 7a2f d2bd
00000090: be88 2abe c641 a7bd 061f 94bd 6e62 8dbb
000000a0: e6d6 b0bd 0b78 68be f22b 02be ecab d9bd
000000b0: b38a fdbc 5d28 1cbe cd11 02be 22af d83b
000000c0: c504 80bd 8871 d0bd a87c d9bd 9b7e 4abe
000000d0: e963 f2bd d152 a9bd 59d4 64be 1bbb 8cbd
000000e0: 0a1d afbd bd66 dcbd 3e42 0fbe 6f5e f0bd
000000f0: 59dc 24be 68ef c7bd 4875 4bbd 3a91 27be
-0.033367284 -0.13183981 -0.07985078 -0.13495816 -0.12767579 -0.11612993 -0.092078805 -0.111001074
-0.10017495 0.02164898 -0.23432499 -0.10458472 -0.13191119 -0.06204437 -0.055984564 -0.10137751
-0.08303968 -0.12114976 -0.09570907 -0.08508812 -0.08643304 -0.05670365 -0.014580053 -0.09216806
-0.12518868 -0.11958554 -0.10028034 -0.10255166 -0.05580416 0.010794665 -0.08039358 -0.10437065
-0.08614387 -0.03907682 -0.1768253 -0.10262962 -0.16653726 -0.08166842 -0.0723248 -0.0043147122
-0.086347386 -0.22702043 -0.12712076 -0.106284946 -0.030949926 -0.15249772 -0.12702103 0.0066126743
-0.0625091 -0.10177904 -0.106194794 -0.19774859 -0.118354626 -0.08267749 -0.22346629 -0.06871625
-0.08550461 -0.10761783 -0.13990113 -0.11736762 -0.16099681 -0.0976246 -0.049672395 -0.16363993

pre_layer.9.running_mean f4 [64]
00000000: edc2 bbbf 384f e2bf be12 a3bf 6223 953f
00000010: c1fd 25c0 d1ef 00c0 28bf 79c0 e112 87c0
00000020: f2b1 cf3d c75b 4c3e a8df b4bf 0ebc 90bf
00000030: 4ddf a1bf fa55 febf 6db0 35c0 2aac c33e
00000040: 1945 08c0 22f6 e7bf 303a 32c0 0dea 47c0
00000050: 29ac f5bf ae49 163f a1e6 02c0 39c7 bbbf
00000060: 1401 35c0 7011 73bf f382 d6bf 1e15 c6bf
00000070: 9202 0ebf edc2 3ec0 efb5 0ec0 ce1c 75be
00000080: 03b3 3bc0 7805 ebbf 2846 acbf 6596 333f
00000090: 6310 f6bf 38d4 c6bb 581e dfbf f835 26bf
000000a0: 68ab 9a3f 1515 543f 28aa a7bf 030c 2e40
000000b0: fe5e a340 6963 47bf c30c d43f cc5e abbf
000000c0: abf7 4dc0 311d 57bc 2254 95bf 178d cdbf
000000d0: b5a4 5a40 3198 94c0 244c 7d3f 0b3f 883e
000000e0: d884 babf 7d5e ac3f 9821 5bbf 48cd 6d3e
000000f0: 724e f5bf 2bb1 72c0 de83 d7bf b8f1 83bf
-1.4668862 -1.7680426 -1.2740095 1.1651423 -2.593613 -2.0146372 -3.9022923 -4.2210546
0.10141362 0.19956885 -1.4130754 -1.130739 -1.2646271 -1.9869988 -2.8388932 0.38217288
-2.1292174 -1.8121989 -2.7848015 -3.1236603 -1.9193164 0.58706176 -2.0453265 -1.4670173
-2.8281908 -0.9494848 -1.6758713 -1.5475194 -0.5547267 -2.9806473 -2.2298543 -0.2393677
-2.932801 -1.8361044 -1.345891 0.7015136 -1.9223751 -0.006067779 -1.7431135 -0.649261
1.2083559 0.8284467 -1.3098803 2.7194831 5.1053457 -0.7788606 1.6566395 -1.3388305
-3.2182415 -0.013129518 -1.16663 -1.6058682 3.416303 -4.643578 0.98944306 0.26610598
-1.4571791 1.3466336 -0.85598135 0.2322284 -1.9164565 -3.7920635 -1.6837118 -1.0308142

pre_layer.9.running_var f4 [64]
00000000: 3166 fb3f 6f45 943f a326 e63f abea 5f3f
00000010: 6511 2840 93ce ff3f 3533 2240 778e f53f
00000020: 693c ae3f 02d7 5940 3c07 f83f 713e 943f
00000030: 8310 0240 2463 ad3f d57a fc3f a732 d53f
00000040: f18f f73f 39a2 793f 5855 b63f d1e4 e23f
00000050: 88e3 f93f af8b 1540 3423 923f 8b4f f53f
00000060: 5e00 e63f dac0 b13f 2198 3340 5b60 8d3f
00000070: 64bc a63f 78aa 5e3f 0628 7b40 b72e 5b40
00000080: 3762 1940 8e6f ae3f a672 e43f 9426 933f
00000090: f333 d83f 2445 c63f 9dd6 be3f 661d f53f
000000a0: a518 1540 db22 2e40 e4f4 5440 20d7 823f
000000b0: 852d ec3f e2f8 fe3f bc8a f83f 7edc 993f
000000c0: 2a07 0640 eb69 8b3f 55c4 bd3f 3770 0c40
000000d0: 5bc1 823f 085b db3f 0c31 ee3f fe48 0540
000000e0: eba1 1340 917b a53f a0c8 eb3f fe92 0440
000000f0: b983 0940 486f 1340 03fa 0d40 3e78 d53f
1.9640561 1.158369 1.7980541 0.8746745 2.6260617 1.9984916 2.5343754 1.9184102
1.3612186 3.403748 1.9377208 1.1581556 2.0322578 1.354588 1.9724985 1.6656083
1.9340802 0.9751316 1.4244795 1.7726079 1.9522562 2.3366506 1.1416993 1.91649
1.7968862 1.3886979 2.8061602 1.104503 1.3026242 0.86978865 3.9243178 3.4247262
2.3966196 1.3627794 1.7847488 1.1496148 1.6890854 1.548985 1.4909245 1.9149597
2.3296292 2.7208774 3.327447 1.0221901 1.8451391 1.9919703 1.9417338 1.2020414
2.0941873 1.0891699 1.4825541 2.194349 1.0215257 1.7137156 1.8608718 2.08258
2.3067577 1.2928334 1.8420601 2.0714717 2.1486647 2.303667 2.2183845 1.667732

conv4.weight f4 [128, 576]
00000000: 3d13 34bd 830d 83bd 8161 0cbe d24f 463b
00000010: 753d 1c3d bcab 14bd c000 37be bf3a 62bd
00000020: 6498 eb3c 5501 43be 00a2 00bd b849 8dbb
00000030: 56cd 82bd 95df 63bd 3327 59ba 969f b43d
00000040: bf67 8cbd 85a0 553d 5aa5 6abb 36af 7c3c
00000050: 4b05 28bd 5073 02be 77be ffbd 6236 bcbc
00000060: 772b e1bc c4e3 953d 0789 533d cf02 813c
00000070: 4bb1 45bd 6ad6 01bb 42fc eebc 0e10 d3bd
00000080: 6781 dbbc 64be 8c3d 044f 24bd 5779 98bd
00000090: 46d2 4cbd 2155 79bd 8579 35bd 0bf7 a4bb
000000a0: 5534 3c3d e8a0 843d 81cc 41bd 8fbf d33d
000000b0: 201a d23d 35ba c83b 6001 75bd 0136 14be
000000c0: 5308 9fbd ad18 0c3d 505b 14bd 0d3d 47be
000000d0: 2ec5 0a3d b124 a73d cc66 0ebe 0790 77bd
000000e0: 428e 29bd 9baa debd 21dc 5bbd 5479 a3bb
000000f0: 4a4e bcbd 55b6 53bc 441d a53d 4ae6 9fbd
00000100: 8474 9f3c b598 8cbd 4aa5 033d 9b49 5c3c
00000110: d7df 19bc bf57 893d 7646 17bc 25db 8cbd
00000120: 27bd 963d 42dc 3f3c 27df 17be ec01 283c
00000130: 44ee bebd 841a adbc 4062 39be d038 0bbe
00000140: 30bf f43c 6f4e 7fbd 6021 0e3d ed0c 45bd
00000150: 60f4 53bd e816 1b3e c0e5 793d c8fa 91bd
00000160: e1c8 5d3d 54ec 103e fde2 223d 9f1d d7bc
00000170: 6b27 f13c d50d 83b9 0a81 1dbd d348 053d
00000180: 53c3 1a3e 860e 3d3d d8c7 0a3d 950e bc3d
00000190: 018b 9bbd 2309 a5bd a634 f93d 0450 f4bc
000001a0: 4316 83bc 4ee9 57bd f1a7 8fbd 1997 7ebc
000001b0: c3c0 6f3d 84b4 9dbc de93 d63b fcd1 483d
000001c0: eaeb f6bd b4bd 9f3d 98e4 0a3e ff84 99bd
000001d0: 0baf cfbb a529 29be 2310 a1bd 1818 e6bb
000001e0: 464e 11be 6876 9ebd 92f7 c6bd df67 ad3d
000001f0: 0c5f 973c 6e80 1dbe 88f3 8cbd 45fe 653d
00000200: 8e7f e13d 5491 0abd 7bc4 213c 2fab 493a
00000210: 7791 48be e7f1 6dbd e8c4 33bc fc5a 55bd
00000220: cf39 85bd fe55 4f3d 64e0 22bd 0a77 4bbd
00000230: e7be bfbd e3b7 3cbd ab58 8cbc 4f79 473d
00000240: ab42 ebbd 9337 863d 526e 9abb 0f1a e0bd
00000250: 3394 dc3c 28e0 51bc a535 73bd 08a0 31bd
00000260: 84c2 fcbc dc21 26bd e9b2 37bd dff7 983b
00000270: 06ca ccbd a433 a1bc c8c7 763d 573d 12be
00000280: c77f b3bc 381f 9c3d e0f0 8f3d 4364 a23c
00000290: 917c 5f3d 55bb 843d 03cb 9c3c a2f2 39bd
000002a0: cf1f 70be 63cc 54bd 4985 a03c 3456 733b
000002b0: d25d a43c eccc e7bd d85f 84bd be93 30bd
000002c0: d473 d1bd 4df8 4abd b2e9 4dbc 0f7f 67bd
000002d0: de92 123d b704 50bc 3fbd 003d 28cb b43b
000002e0: f4c8 01bd fdc1 483d dc04 b03d da0e 55bd
000002f0: 2ee8 95bd 9959 fa3b c2cb 2dbc 4d42 943d
00000300: d1fe a9bc 7ba1 eebd 721b 09bd 9891 9bbc
00000310: 524b 16bd f900 bd3c 4024 643d ebc9 dbb9
00000320: 2b61 d63c cde5 c43d 5b7b ad3d fee3 71bd
00000330: 5932 7d3d 5d1c 203e fa23 8f3c 1ff3 d83c
00000340: a4e4 bcbd 9a08 00be 3747 4e3c 0495 66bd
00000350: 32dc 43bd abda 6c3d 2454 fbbd e0e1 09be
00000360: ecf1 cdbd 4299 36bc 7e8c 67bd 3bb4 8bbd
00000370: fa72 c4bc b65f 06bd a593 c9bd 95a3 f2bc
00000380: 5e7a 5a3d 2d68 b3bc 3e56 2cbc d221 db3c
00000390: 06d9 ea3c 9e87 bcbc 0dbd 05bd e73f 903c
000003a0: fcf1 e43c 1846 873c 0e25 0dbe 0385 ca3c
000003b0: 2976 36bd 8ef8 69bd e19f 57bc 5e7c 8cbb
000003c0: e8dd a6bb 1086 a8bd f560 dd3b 7093 42bd
000003d0: 6dd1 cf3c eeb2 bf3a ccd6 42be 0f61 e1bd
000003e0: c118 dfbc 0ac6 493d 89ec 803c 1185 903c
000003f0: cfcd c33a 64da e6bd aca1 b6bd 0284 0f3d
-0.04396366 -0.063990615 -0.1370907 0.003025998 0.038144547 -0.03629659 -0.1787138 -0.055231806
0.028759189 -0.19043477 -0.031404495 -0.0043117665 -0.06386821 -0.055633146 -0.0008283734 0.08819501
-0.068557255 0.052155036 -0.0035804124 0.015422633 -0.041020673 -0.127393 -0.124875 -0.02297515
-0.027486546 0.073188335 0.05164435 0.01574841 -0.048264783 -0.0019811639 -0.02917302 -0.103057966
-0.026795102 0.06872252 -0.040114418 -0.07445019 -0.05000522 -0.0608722 -0.044305343 -0.0050343326
0.045948345 0.06476003 -0.04731417 0.10339271 0.10258889 0.0061257132 -0.059815764 -0.14473726
-0.077652596 0.03420322 -0.036219895 -0.19456883 0.03387945 0.08161295 -0.13906401 -0.06044009
-0.041395433 -0.10872384 -0.05367673 -0.0049888287 -0.0919462 -0.012921889 0.080622226 -0.07807596
0.019464739 -0.06865064 0.032140054 0.013445283 -0.0093917465 0.06706189 -0.009233108 -0.06877736
0.07360297 0.011710228 -0.1483122 0.010254364 -0.09322789 -0.021130808 -0.18103886 -0.13595891
0.029876322 -0.06233066 0.034699798 -0.04810803 -0.051746726 0.15145457 0.061010122 -0.07127911
0.05414665 0.14152652 0.039767254 -0.026259242 0.029437741 -0.00024996573 -0.03845314 0.032540154
0.15113573 0.04615643 0.033881992 0.09182469 -0.07594872 -0.08058383 0.12168245 -0.02982331
-0.016001826 -0.05271273 -0.07014454 -0.015538954 0.05853344 -0.019251116 0.006548389 0.04902838
-0.12056716 0.07799855 0.13563764 -0.0749607 -0.0063380054 -0.16519792 -0.07864406 -0.007021915
-0.14190015 -0.07737428 -0.09715189 0.084670775 0.01847794 -0.15381023 -0.068823874 0.056150693
0.11010657 -0.033830002 0.009873505 0.000769305 -0.1958674 -0.058092024 -0.010972239 -0.052088723
-0.06505167 0.050619118 -0.039764777 -0.04967407 -0.093625836 -0.046073806 -0.017132124 0.048699673
-0.11487325 0.06553569 -0.0047128582 -0.1094247 0.026926136 -0.012809791 -0.05937733 -0.04336551
-0.030854471 -0.040559635 -0.044848356 0.0046682204 -0.099994704 -0.019677944 0.06024912 -0.14281212
-0.021911515 0.07623142 0.07028365 0.0198232 0.054562155 0.06481043 0.019139772 -0.04539741
-0.23449634 -0.05195273 0.019594805 0.0037130238 0.020064268 -0.113183826 -0.06463593 -0.043109648
-0.102271706 -0.049553204 -0.012567924 -0.056517657 0.035784595 -0.012696437 0.03143048 0.005517382
-0.031685784 0.049013127 0.08594677 -0.052016117 -0.073196754 0.0076400754 -0.010607662 0.07239208
-0.020751389 -0.11651894 -0.03347344 -0.018990323 -0.036692925 0.023071753 0.055698633 -0.00041921376
0.02616938 0.096141435 0.08470794 -0.05905532 0.061815593 0.1563582 0.01747321 0.026483117
-0.09223297 -0.12503281 0.012590221 -0.056294456 -0.047817416 0.057825726 -0.12271908 -0.1346507
-0.100559086 -0.011144938 -0.05653047 -0.068214856 -0.023980606 -0.03280612 -0.09842614 -0.029619018
0.053339355 -0.02190026 -0.010518609 0.026749525 0.028667938 -0.023013886 -0.032650996 0.017608596
0.027947418 0.016512915 -0.13783666 0.024721628 -0.04454628 -0.057121806 -0.013160677 -0.0042872867
-0.0050923713 -0.082286954 0.006755943 -0.04750389 0.025368417 0.0014625469 -0.19027251 -0.110048406
-0.027233483 0.04926113 0.015737789 0.017641576 0.0014938655 -0.112721235 -0.08917555 0.035038

conv4.bias f4 [128]
00000000: d943 a23d bfb6 163e 808b 7e3d 7c73 563d
00000010: 4cca 1fbc c96a 3c3e 91c5 253d 7641 c7bc
00000020: cee2 833d 5b23 013e 118e 8abd 9d28 4dbd
00000030: 25bc 4a3d a811 95bd 894a 183e 7f93 e53d
00000040: eaf2 bb3d 137a 093e 76e9 3d3e 0638 05bd
00000050: 4c8d 143e a2ed b23d 743a ba3e 7eaa 0cbb
00000060: 8344 403c 8c51 6b3c cb8c e23d ef2d fc3c
00000070: aed9 5abd 40ce ccbd 76d1 8f3c 8418 f83d
00000080: dc02 89bc 4dd1 d53d 5541 d03d 17f5 003e
00000090: 7271 a8bd 154e 943c b227 b33d 3642 11bd
000000a0: bc63 c23d 9b86 6e3d c995 a8bd f947 bf3d
000000b0: fa6b 30bd 03ce 39bd a0b5 7b3d e30c 3e3e
000000c0: cf87 533e a6d0 1bbe 646c f83c 185f 1f3e
000000d0: 585c 6c3d 8bd0 853b 5dde b0bd 6779 3d3e
000000e0: c8ec 0f3d 1aa9 833c 6a59 913d 5a66 4b3d
000000f0: 3b11 033d 37fe cbbb e1f4 463c e667 a0be
00000100: ff6e 243d f29c f8b9 b58f 6a3d 7204 69bd
00000110: 4421 e43e c753 ff3c 6392 c9bc 5e48 f33d
00000120: e0d7 e9bd f901 d13c 3193 07bc 66e5 373d
00000130: 3f9b 24bd 7549 ee3d a32b 2a3d 4562 ee3c
00000140: 2665 53bd 4888 8dbd cf2d 4a3d 3da6 34bd
00000150: f52e de3d 5cb4 a3bc 17bc d8bd 258c b4bd
00000160: 52fd 953d 78f3 15be 9bd7 dc3d 5f00 b5ba
00000170: 2611 9b3c 9c97 d43d 737b 6f3d 4741 793d
00000180: f360 cdbd 17f5 943d 0c82 223c 1a72 d63d
00000190: 4f50 ac3e 0e79 4a3e 5143 9d3d 5c94 213d
000001a0: bd56 793e cd4e fb3c fc45 843d e2e5 cb3c
000001b0: be6d 43bd a341 f83d 0b89 20bd f54f 173e
000001c0: 0e8c 003e fa03 fc3c ae12 39be 4e4d 9a3e
000001d0: e00e b1bd ed25 1e3d bab6 0b3e 21e8 c03e
000001e0: f6a3 173c e28a 0b3e 1f94 32bd bc85 bd3d
000001f0: 4aa4 103c d292 783d ae71 c83d db7b 2d3d
0.07923097 0.1471815 0.062144756 0.05235623 -0.009752821 0.1840011 0.040471617 -0.024323206
0.06439744 0.12611143 -0.06765378 -0.05008756 0.049495835 -0.07278758 0.14872183 0.11209773
0.091771916 0.13425474 0.1854609 -0.03252413 0.14507025 0.08736731 0.3637272 -0.0021463926
0.0117350845 0.014362704 0.110620104 0.030783622 -0.05343025 -0.100002766 0.017555933 0.12114051
-0.016724996 0.104403116 0.10168711 0.12593494 -0.08224763 0.018103639 0.08747806 -0.035463534
0.09491679 0.05823384 -0.08231694 0.093398996 -0.043071724 -0.045362484 0.061452508 0.18559603
0.20657276 -0.15216312 0.030325122 0.15563619 0.057705253 0.004083698 -0.086361624 0.18503343
0.03513792 0.016071845 0.070971325 0.049658157 0.031998854 -0.006225373 0.012143345 -0.31329268
0.040144917 -0.0004741918 0.057265956 -0.056889005 0.4455663 0.031167878 -0.024605935 0.11879037
-0.11418128 0.025513636 -0.008274839 0.044896506 -0.040187117 0.116351046 0.04154552 0.029099593
-0.051610135 -0.06910759 0.049360093 -0.04410385 0.108488 -0.019983463 -0.1058275 -0.08815793
0.07323708 -0.14643657 0.10783311 -0.0013809315 0.018929075 0.1038048 0.05846734 0.06085327
-0.10028257 0.0727331 0.009918701 0.10470982 0.3365502 0.19772741 0.07678855 0.039448127
0.24349494 0.030677224 0.06458661 0.02488989 -0.04771208 0.12121894 -0.039193194 0.14776595
0.12553427 0.030763615 -0.18073532 0.30137104 -0.08645415 0.038610388 0.13643923 0.376771
0.0092554 0.13627198 -0.04359829 0.092540234 0.008828232 0.060686894 0.09787308 0.042354446

conv5_1.weight f4 [1, 128]
00000000: ae0d 343e 6a51 fabd daff 78bd 41ac a73e
00000010: c025 03be 289f 19be fe24 623e fb8e 3abe
00000020: bb66 00be 69a2 cdbd 231f 463e 835a d1bc
00000030: b422 3a3c 83e9 d13d 74e7 bebd 4d4d 7d3e
00000040: f8f6 b3bd 0b47 5d3e 8927 12be b0a7 773e
00000050: abab 4bbe 62fc 01be ed56 79bc 212a 09be
00000060: a0e6 873e 2da7 41be b54e 383e 932b f5bd
00000070: 3e1a a43e 9a4a 4d3e 6422 2c3e c417 053d
00000080: e7e0 683e 8d21 63be 9401 81be 41ec 3bbe
00000090: 8a50 6f3e 726a 713e 6290 01be a43d 493e
000000a0: 7266 0fbe 5949 85bd 8e36 9b3e bd57 3dbe
000000b0: 98a6 a93e 5085 a33e 8af9 93bd aeda c4bd
000000c0: d765 abbd e6a0 cc3d b6c8 a4bd 2a6f edbd
000000d0: 74d6 b73d ca63 8bbd f598 923e 2e6e 18bd
000000e0: aba4 f9bd 0b62 c1bd 43cc d73d 6793 2ebe
000000f0: f32e 41be 2eef 02be 15f0 263e 30ba 833e
00000100: 674f e7bd 62ff 813e e872 33be fcdf 60be
00000110: b53b 48bd 4073 9bbd 2c73 8d3e 8650 d0bd
00000120: 8f8d 13bd a38e 0abe 8955 95bc 887a ab3e
00000130: 659a 433e 3753 23be f6e2 b7bd 338e e2bd
00000140: 9192 18be 3061 933e 430a b2bd 02b2 983e
00000150: 895c cdbc 55b1 713e fa4d b53e 3877 873e
00000160: c480 00bd 4c2d c63e 4128 f9bd 3ef5 3f3e
00000170: fe15 5f3e 3ea4 b0bd 7693 c4bd 0b40 0ebe
00000180: 20c6 953e d44e bcbd 6437 55be e848 443c
00000190: e2d6 47bd 0551 cdbd b8da 493e 674c 593e
000001a0: 3b20 83bc b1cb 9e3e 4cdc 39be ccda babd
000001b0: 91fc 3b3e 0240 fabd b284 463e a929 dcbd
000001c0: 6fd7 32be 3abf d1bd d208 b83e 661d c3bd
000001d0: ebd6 7e3e a77b dabd b392 2abe 9cfa 0ebd
000001e0: 5026 2cbe d823 e5bd d80d 90bd 934a 33be
000001f0: 28fd 0ebe b35a 75bd cacc 9dbd 825b 27be
0.17583343 -0.1222256 -0.060790874 0.32748607 -0.12807369 -0.1500212 0.22084424 -0.18218605
-0.12539189 -0.10040743 0.19347815 -0.025555855 0.011360813 0.10249617 -0.0932149 0.24736519
-0.0878734 0.21609132 -0.14272894 0.24185061 -0.19889705 -0.12693933 -0.015218479 -0.13394977
0.2654314 -0.18911429 0.17998774 -0.11971202 0.3205127 0.2004799 0.16809994 0.032493368
0.22742043 -0.22180767 -0.25196517 -0.18351842 0.23370567 0.23575762 -0.12652734 0.1965242
-0.14003924 -0.065081306 0.3031506 -0.18490501 0.33134913 0.31937647 -0.0722533 -0.09612022
-0.08369034 0.099916264 -0.08046095 -0.115934685 0.089764506 -0.06806143 0.28632322 -0.03721445
-0.12189611 -0.09442528 0.10537007 -0.17048417 -0.18865566 -0.12786552 0.16302522 0.25727987
-0.11294442 0.25390154 -0.17524302 -0.21960443 -0.048885066 -0.075903416 0.27626932 -0.101716086
-0.036023673 -0.13530974 -0.018229263 0.3349192 0.19101866 -0.15949713 -0.08978836 -0.110622786
-0.1489966 0.28785086 -0.086933635 0.2982331 -0.025068538 0.23602803 0.35411054 0.26458144
-0.0313728 0.38706434 -0.12165881 0.18745896 0.21785733 -0.08625077 -0.095984384 -0.13891618
0.2925272 -0.09194723 -0.20821911 0.011980273 -0.048788913 -0.10025219 0.19712341 0.21220551
-0.01600658 0.3101478 -0.18150443 -0.091237634 0.18358065 -0.1221924 0.19386557 -0.107501335
-0.17464994 -0.10241552 0.3594423 -0.09527092 0.24886672 -0.10668116 -0.16657524 -0.03490697
-0.1681149 -0.11188477 -0.070338905 -0.17508917 -0.13963759 -0.05990095 -0.07705076 -0.16343501
